node {
  name: "Placeholder"
  op: "Placeholder"
  attr {
    key: "dtype"
    value {
      type: DT_FLOAT
    }
  }
  attr {
    key: "shape"
    value {
      shape {
        dim {
          size: 1
        }
        dim {
          size: -1
        }
        dim {
          size: -1
        }
        dim {
          size: 1
        }
      }
    }
  }
}
node {
  name: "Const"
  op: "Const"
  attr {
    key: "dtype"
    value {
      type: DT_BOOL
    }
  }
  attr {
    key: "value"
    value {
      tensor {
        dtype: DT_BOOL
        tensor_shape {
        }
        bool_val: false
      }
    }
  }
}
node {
  name: "moments/mean/reduction_indices"
  op: "Const"
  attr {
    key: "dtype"
    value {
      type: DT_INT32
    }
  }
  attr {
    key: "value"
    value {
      tensor {
        dtype: DT_INT32
        tensor_shape {
          dim {
            size: 2
          }
        }
        tensor_content: "\001\000\000\000\002\000\000\000"
      }
    }
  }
}
node {
  name: "moments/mean"
  op: "Mean"
  input: "Placeholder"
  input: "moments/mean/reduction_indices"
  attr {
    key: "T"
    value {
      type: DT_FLOAT
    }
  }
  attr {
    key: "Tidx"
    value {
      type: DT_INT32
    }
  }
  attr {
    key: "keep_dims"
    value {
      b: true
    }
  }
}
node {
  name: "moments/StopGradient"
  op: "StopGradient"
  input: "moments/mean"
  attr {
    key: "T"
    value {
      type: DT_FLOAT
    }
  }
}
node {
  name: "moments/SquaredDifference"
  op: "SquaredDifference"
  input: "Placeholder"
  input: "moments/StopGradient"
  attr {
    key: "T"
    value {
      type: DT_FLOAT
    }
  }
}
node {
  name: "moments/variance/reduction_indices"
  op: "Const"
  attr {
    key: "dtype"
    value {
      type: DT_INT32
    }
  }
  attr {
    key: "value"
    value {
      tensor {
        dtype: DT_INT32
        tensor_shape {
          dim {
            size: 2
          }
        }
        tensor_content: "\001\000\000\000\002\000\000\000"
      }
    }
  }
}
node {
  name: "moments/variance"
  op: "Mean"
  input: "moments/SquaredDifference"
  input: "moments/variance/reduction_indices"
  attr {
    key: "T"
    value {
      type: DT_FLOAT
    }
  }
  attr {
    key: "Tidx"
    value {
      type: DT_INT32
    }
  }
  attr {
    key: "keep_dims"
    value {
      b: true
    }
  }
}
node {
  name: "batchnorm/add/y"
  op: "Const"
  attr {
    key: "dtype"
    value {
      type: DT_FLOAT
    }
  }
  attr {
    key: "value"
    value {
      tensor {
        dtype: DT_FLOAT
        tensor_shape {
        }
        float_val: 0.0010000000474974513
      }
    }
  }
}
node {
  name: "batchnorm/add"
  op: "Add"
  input: "moments/variance"
  input: "batchnorm/add/y"
  attr {
    key: "T"
    value {
      type: DT_FLOAT
    }
  }
}
node {
  name: "batchnorm/Rsqrt"
  op: "Rsqrt"
  input: "batchnorm/add"
  attr {
    key: "T"
    value {
      type: DT_FLOAT
    }
  }
}
node {
  name: "batchnorm/mul"
  op: "Mul"
  input: "Placeholder"
  input: "batchnorm/Rsqrt"
  attr {
    key: "T"
    value {
      type: DT_FLOAT
    }
  }
}
node {
  name: "batchnorm/Neg"
  op: "Neg"
  input: "moments/mean"
  attr {
    key: "T"
    value {
      type: DT_FLOAT
    }
  }
}
node {
  name: "batchnorm/mul_1"
  op: "Mul"
  input: "batchnorm/Neg"
  input: "batchnorm/Rsqrt"
  attr {
    key: "T"
    value {
      type: DT_FLOAT
    }
  }
}
node {
  name: "batchnorm/add_1"
  op: "Add"
  input: "batchnorm/mul"
  input: "batchnorm/mul_1"
  attr {
    key: "T"
    value {
      type: DT_FLOAT
    }
  }
}
node {
  name: "MSDeepDet/Shape"
  op: "Shape"
  input: "Placeholder"
  attr {
    key: "T"
    value {
      type: DT_FLOAT
    }
  }
  attr {
    key: "out_type"
    value {
      type: DT_INT32
    }
  }
}
node {
  name: "MSDeepDet/strided_slice/stack"
  op: "Const"
  attr {
    key: "dtype"
    value {
      type: DT_INT32
    }
  }
  attr {
    key: "value"
    value {
      tensor {
        dtype: DT_INT32
        tensor_shape {
          dim {
            size: 1
          }
        }
        int_val: 0
      }
    }
  }
}
node {
  name: "MSDeepDet/strided_slice/stack_1"
  op: "Const"
  attr {
    key: "dtype"
    value {
      type: DT_INT32
    }
  }
  attr {
    key: "value"
    value {
      tensor {
        dtype: DT_INT32
        tensor_shape {
          dim {
            size: 1
          }
        }
        int_val: 1
      }
    }
  }
}
node {
  name: "MSDeepDet/strided_slice/stack_2"
  op: "Const"
  attr {
    key: "dtype"
    value {
      type: DT_INT32
    }
  }
  attr {
    key: "value"
    value {
      tensor {
        dtype: DT_INT32
        tensor_shape {
          dim {
            size: 1
          }
        }
        int_val: 1
      }
    }
  }
}
node {
  name: "MSDeepDet/strided_slice"
  op: "StridedSlice"
  input: "MSDeepDet/Shape"
  input: "MSDeepDet/strided_slice/stack"
  input: "MSDeepDet/strided_slice/stack_1"
  input: "MSDeepDet/strided_slice/stack_2"
  attr {
    key: "Index"
    value {
      type: DT_INT32
    }
  }
  attr {
    key: "T"
    value {
      type: DT_INT32
    }
  }
  attr {
    key: "begin_mask"
    value {
      i: 0
    }
  }
  attr {
    key: "ellipsis_mask"
    value {
      i: 0
    }
  }
  attr {
    key: "end_mask"
    value {
      i: 0
    }
  }
  attr {
    key: "new_axis_mask"
    value {
      i: 0
    }
  }
  attr {
    key: "shrink_axis_mask"
    value {
      i: 1
    }
  }
}
node {
  name: "MSDeepDet/Shape_1"
  op: "Shape"
  input: "Placeholder"
  attr {
    key: "T"
    value {
      type: DT_FLOAT
    }
  }
  attr {
    key: "out_type"
    value {
      type: DT_INT32
    }
  }
}
node {
  name: "MSDeepDet/strided_slice_1/stack"
  op: "Const"
  attr {
    key: "dtype"
    value {
      type: DT_INT32
    }
  }
  attr {
    key: "value"
    value {
      tensor {
        dtype: DT_INT32
        tensor_shape {
          dim {
            size: 1
          }
        }
        int_val: 1
      }
    }
  }
}
node {
  name: "MSDeepDet/strided_slice_1/stack_1"
  op: "Const"
  attr {
    key: "dtype"
    value {
      type: DT_INT32
    }
  }
  attr {
    key: "value"
    value {
      tensor {
        dtype: DT_INT32
        tensor_shape {
          dim {
            size: 1
          }
        }
        int_val: 2
      }
    }
  }
}
node {
  name: "MSDeepDet/strided_slice_1/stack_2"
  op: "Const"
  attr {
    key: "dtype"
    value {
      type: DT_INT32
    }
  }
  attr {
    key: "value"
    value {
      tensor {
        dtype: DT_INT32
        tensor_shape {
          dim {
            size: 1
          }
        }
        int_val: 1
      }
    }
  }
}
node {
  name: "MSDeepDet/strided_slice_1"
  op: "StridedSlice"
  input: "MSDeepDet/Shape_1"
  input: "MSDeepDet/strided_slice_1/stack"
  input: "MSDeepDet/strided_slice_1/stack_1"
  input: "MSDeepDet/strided_slice_1/stack_2"
  attr {
    key: "Index"
    value {
      type: DT_INT32
    }
  }
  attr {
    key: "T"
    value {
      type: DT_INT32
    }
  }
  attr {
    key: "begin_mask"
    value {
      i: 0
    }
  }
  attr {
    key: "ellipsis_mask"
    value {
      i: 0
    }
  }
  attr {
    key: "end_mask"
    value {
      i: 0
    }
  }
  attr {
    key: "new_axis_mask"
    value {
      i: 0
    }
  }
  attr {
    key: "shrink_axis_mask"
    value {
      i: 1
    }
  }
}
node {
  name: "MSDeepDet/Shape_2"
  op: "Shape"
  input: "Placeholder"
  attr {
    key: "T"
    value {
      type: DT_FLOAT
    }
  }
  attr {
    key: "out_type"
    value {
      type: DT_INT32
    }
  }
}
node {
  name: "MSDeepDet/strided_slice_2/stack"
  op: "Const"
  attr {
    key: "dtype"
    value {
      type: DT_INT32
    }
  }
  attr {
    key: "value"
    value {
      tensor {
        dtype: DT_INT32
        tensor_shape {
          dim {
            size: 1
          }
        }
        int_val: 2
      }
    }
  }
}
node {
  name: "MSDeepDet/strided_slice_2/stack_1"
  op: "Const"
  attr {
    key: "dtype"
    value {
      type: DT_INT32
    }
  }
  attr {
    key: "value"
    value {
      tensor {
        dtype: DT_INT32
        tensor_shape {
          dim {
            size: 1
          }
        }
        int_val: 3
      }
    }
  }
}
node {
  name: "MSDeepDet/strided_slice_2/stack_2"
  op: "Const"
  attr {
    key: "dtype"
    value {
      type: DT_INT32
    }
  }
  attr {
    key: "value"
    value {
      tensor {
        dtype: DT_INT32
        tensor_shape {
          dim {
            size: 1
          }
        }
        int_val: 1
      }
    }
  }
}
node {
  name: "MSDeepDet/strided_slice_2"
  op: "StridedSlice"
  input: "MSDeepDet/Shape_2"
  input: "MSDeepDet/strided_slice_2/stack"
  input: "MSDeepDet/strided_slice_2/stack_1"
  input: "MSDeepDet/strided_slice_2/stack_2"
  attr {
    key: "Index"
    value {
      type: DT_INT32
    }
  }
  attr {
    key: "T"
    value {
      type: DT_INT32
    }
  }
  attr {
    key: "begin_mask"
    value {
      i: 0
    }
  }
  attr {
    key: "ellipsis_mask"
    value {
      i: 0
    }
  }
  attr {
    key: "end_mask"
    value {
      i: 0
    }
  }
  attr {
    key: "new_axis_mask"
    value {
      i: 0
    }
  }
  attr {
    key: "shrink_axis_mask"
    value {
      i: 1
    }
  }
}
node {
  name: "MSDeepDet/ConvOnlyResNet/Identity"
  op: "Identity"
  input: "Placeholder"
  attr {
    key: "T"
    value {
      type: DT_FLOAT
    }
  }
}
node {
  name: "ConvOnlyResNet/init_conv/weights/Initializer/random_uniform/shape"
  op: "Const"
  attr {
    key: "_class"
    value {
      list {
        s: "loc:@ConvOnlyResNet/init_conv/weights"
      }
    }
  }
  attr {
    key: "dtype"
    value {
      type: DT_INT32
    }
  }
  attr {
    key: "value"
    value {
      tensor {
        dtype: DT_INT32
        tensor_shape {
          dim {
            size: 4
          }
        }
        tensor_content: "\005\000\000\000\005\000\000\000\001\000\000\000\020\000\000\000"
      }
    }
  }
}
node {
  name: "ConvOnlyResNet/init_conv/weights/Initializer/random_uniform/min"
  op: "Const"
  attr {
    key: "_class"
    value {
      list {
        s: "loc:@ConvOnlyResNet/init_conv/weights"
      }
    }
  }
  attr {
    key: "dtype"
    value {
      type: DT_FLOAT
    }
  }
  attr {
    key: "value"
    value {
      tensor {
        dtype: DT_FLOAT
        tensor_shape {
        }
        float_val: -0.11881770193576813
      }
    }
  }
}
node {
  name: "ConvOnlyResNet/init_conv/weights/Initializer/random_uniform/max"
  op: "Const"
  attr {
    key: "_class"
    value {
      list {
        s: "loc:@ConvOnlyResNet/init_conv/weights"
      }
    }
  }
  attr {
    key: "dtype"
    value {
      type: DT_FLOAT
    }
  }
  attr {
    key: "value"
    value {
      tensor {
        dtype: DT_FLOAT
        tensor_shape {
        }
        float_val: 0.11881770193576813
      }
    }
  }
}
node {
  name: "ConvOnlyResNet/init_conv/weights/Initializer/random_uniform/RandomUniform"
  op: "RandomUniform"
  input: "ConvOnlyResNet/init_conv/weights/Initializer/random_uniform/shape"
  attr {
    key: "T"
    value {
      type: DT_INT32
    }
  }
  attr {
    key: "_class"
    value {
      list {
        s: "loc:@ConvOnlyResNet/init_conv/weights"
      }
    }
  }
  attr {
    key: "dtype"
    value {
      type: DT_FLOAT
    }
  }
  attr {
    key: "seed"
    value {
      i: 0
    }
  }
  attr {
    key: "seed2"
    value {
      i: 0
    }
  }
}
node {
  name: "ConvOnlyResNet/init_conv/weights/Initializer/random_uniform/sub"
  op: "Sub"
  input: "ConvOnlyResNet/init_conv/weights/Initializer/random_uniform/max"
  input: "ConvOnlyResNet/init_conv/weights/Initializer/random_uniform/min"
  attr {
    key: "T"
    value {
      type: DT_FLOAT
    }
  }
  attr {
    key: "_class"
    value {
      list {
        s: "loc:@ConvOnlyResNet/init_conv/weights"
      }
    }
  }
}
node {
  name: "ConvOnlyResNet/init_conv/weights/Initializer/random_uniform/mul"
  op: "Mul"
  input: "ConvOnlyResNet/init_conv/weights/Initializer/random_uniform/RandomUniform"
  input: "ConvOnlyResNet/init_conv/weights/Initializer/random_uniform/sub"
  attr {
    key: "T"
    value {
      type: DT_FLOAT
    }
  }
  attr {
    key: "_class"
    value {
      list {
        s: "loc:@ConvOnlyResNet/init_conv/weights"
      }
    }
  }
}
node {
  name: "ConvOnlyResNet/init_conv/weights/Initializer/random_uniform"
  op: "Add"
  input: "ConvOnlyResNet/init_conv/weights/Initializer/random_uniform/mul"
  input: "ConvOnlyResNet/init_conv/weights/Initializer/random_uniform/min"
  attr {
    key: "T"
    value {
      type: DT_FLOAT
    }
  }
  attr {
    key: "_class"
    value {
      list {
        s: "loc:@ConvOnlyResNet/init_conv/weights"
      }
    }
  }
}
node {
  name: "ConvOnlyResNet/init_conv/weights"
  op: "VariableV2"
  attr {
    key: "_class"
    value {
      list {
        s: "loc:@ConvOnlyResNet/init_conv/weights"
      }
    }
  }
  attr {
    key: "container"
    value {
      s: ""
    }
  }
  attr {
    key: "dtype"
    value {
      type: DT_FLOAT
    }
  }
  attr {
    key: "shape"
    value {
      shape {
        dim {
          size: 5
        }
        dim {
          size: 5
        }
        dim {
          size: 1
        }
        dim {
          size: 16
        }
      }
    }
  }
  attr {
    key: "shared_name"
    value {
      s: ""
    }
  }
}
node {
  name: "ConvOnlyResNet/init_conv/weights/Assign"
  op: "Assign"
  input: "ConvOnlyResNet/init_conv/weights"
  input: "ConvOnlyResNet/init_conv/weights/Initializer/random_uniform"
  attr {
    key: "T"
    value {
      type: DT_FLOAT
    }
  }
  attr {
    key: "_class"
    value {
      list {
        s: "loc:@ConvOnlyResNet/init_conv/weights"
      }
    }
  }
  attr {
    key: "use_locking"
    value {
      b: true
    }
  }
  attr {
    key: "validate_shape"
    value {
      b: true
    }
  }
}
node {
  name: "ConvOnlyResNet/init_conv/weights/read"
  op: "Identity"
  input: "ConvOnlyResNet/init_conv/weights"
  attr {
    key: "T"
    value {
      type: DT_FLOAT
    }
  }
  attr {
    key: "_class"
    value {
      list {
        s: "loc:@ConvOnlyResNet/init_conv/weights"
      }
    }
  }
}
node {
  name: "ConvOnlyResNet/init_conv/biases/Initializer/zeros"
  op: "Const"
  attr {
    key: "_class"
    value {
      list {
        s: "loc:@ConvOnlyResNet/init_conv/biases"
      }
    }
  }
  attr {
    key: "dtype"
    value {
      type: DT_FLOAT
    }
  }
  attr {
    key: "value"
    value {
      tensor {
        dtype: DT_FLOAT
        tensor_shape {
          dim {
            size: 16
          }
        }
        float_val: 0.0
      }
    }
  }
}
node {
  name: "ConvOnlyResNet/init_conv/biases"
  op: "VariableV2"
  attr {
    key: "_class"
    value {
      list {
        s: "loc:@ConvOnlyResNet/init_conv/biases"
      }
    }
  }
  attr {
    key: "container"
    value {
      s: ""
    }
  }
  attr {
    key: "dtype"
    value {
      type: DT_FLOAT
    }
  }
  attr {
    key: "shape"
    value {
      shape {
        dim {
          size: 16
        }
      }
    }
  }
  attr {
    key: "shared_name"
    value {
      s: ""
    }
  }
}
node {
  name: "ConvOnlyResNet/init_conv/biases/Assign"
  op: "Assign"
  input: "ConvOnlyResNet/init_conv/biases"
  input: "ConvOnlyResNet/init_conv/biases/Initializer/zeros"
  attr {
    key: "T"
    value {
      type: DT_FLOAT
    }
  }
  attr {
    key: "_class"
    value {
      list {
        s: "loc:@ConvOnlyResNet/init_conv/biases"
      }
    }
  }
  attr {
    key: "use_locking"
    value {
      b: true
    }
  }
  attr {
    key: "validate_shape"
    value {
      b: true
    }
  }
}
node {
  name: "ConvOnlyResNet/init_conv/biases/read"
  op: "Identity"
  input: "ConvOnlyResNet/init_conv/biases"
  attr {
    key: "T"
    value {
      type: DT_FLOAT
    }
  }
  attr {
    key: "_class"
    value {
      list {
        s: "loc:@ConvOnlyResNet/init_conv/biases"
      }
    }
  }
}
node {
  name: "MSDeepDet/ConvOnlyResNet/init_conv/weights/tag"
  op: "Const"
  attr {
    key: "dtype"
    value {
      type: DT_STRING
    }
  }
  attr {
    key: "value"
    value {
      tensor {
        dtype: DT_STRING
        tensor_shape {
        }
        string_val: "MSDeepDet/ConvOnlyResNet/init_conv/weights"
      }
    }
  }
}
node {
  name: "MSDeepDet/ConvOnlyResNet/init_conv/weights"
  op: "HistogramSummary"
  input: "MSDeepDet/ConvOnlyResNet/init_conv/weights/tag"
  input: "ConvOnlyResNet/init_conv/weights/read"
  attr {
    key: "T"
    value {
      type: DT_FLOAT
    }
  }
}
node {
  name: "MSDeepDet/ConvOnlyResNet/init_conv/biases/tag"
  op: "Const"
  attr {
    key: "dtype"
    value {
      type: DT_STRING
    }
  }
  attr {
    key: "value"
    value {
      tensor {
        dtype: DT_STRING
        tensor_shape {
        }
        string_val: "MSDeepDet/ConvOnlyResNet/init_conv/biases"
      }
    }
  }
}
node {
  name: "MSDeepDet/ConvOnlyResNet/init_conv/biases"
  op: "HistogramSummary"
  input: "MSDeepDet/ConvOnlyResNet/init_conv/biases/tag"
  input: "ConvOnlyResNet/init_conv/biases/read"
  attr {
    key: "T"
    value {
      type: DT_FLOAT
    }
  }
}
node {
  name: "MSDeepDet/ConvOnlyResNet/init_conv/Conv2D"
  op: "Conv2D"
  input: "MSDeepDet/ConvOnlyResNet/Identity"
  input: "ConvOnlyResNet/init_conv/weights/read"
  attr {
    key: "T"
    value {
      type: DT_FLOAT
    }
  }
  attr {
    key: "data_format"
    value {
      s: "NHWC"
    }
  }
  attr {
    key: "dilations"
    value {
      list {
        i: 1
        i: 1
        i: 1
        i: 1
      }
    }
  }
  attr {
    key: "padding"
    value {
      s: "SAME"
    }
  }
  attr {
    key: "strides"
    value {
      list {
        i: 1
        i: 1
        i: 1
        i: 1
      }
    }
  }
  attr {
    key: "use_cudnn_on_gpu"
    value {
      b: true
    }
  }
}
node {
  name: "MSDeepDet/ConvOnlyResNet/init_conv/BiasAdd"
  op: "BiasAdd"
  input: "MSDeepDet/ConvOnlyResNet/init_conv/Conv2D"
  input: "ConvOnlyResNet/init_conv/biases/read"
  attr {
    key: "T"
    value {
      type: DT_FLOAT
    }
  }
  attr {
    key: "data_format"
    value {
      s: "NHWC"
    }
  }
}
node {
  name: "ConvOnlyResNet/block-1/pre-bn/gamma/Initializer/ones"
  op: "Const"
  attr {
    key: "_class"
    value {
      list {
        s: "loc:@ConvOnlyResNet/block-1/pre-bn/gamma"
      }
    }
  }
  attr {
    key: "dtype"
    value {
      type: DT_FLOAT
    }
  }
  attr {
    key: "value"
    value {
      tensor {
        dtype: DT_FLOAT
        tensor_shape {
          dim {
            size: 16
          }
        }
        float_val: 1.0
      }
    }
  }
}
node {
  name: "ConvOnlyResNet/block-1/pre-bn/gamma"
  op: "VariableV2"
  attr {
    key: "_class"
    value {
      list {
        s: "loc:@ConvOnlyResNet/block-1/pre-bn/gamma"
      }
    }
  }
  attr {
    key: "container"
    value {
      s: ""
    }
  }
  attr {
    key: "dtype"
    value {
      type: DT_FLOAT
    }
  }
  attr {
    key: "shape"
    value {
      shape {
        dim {
          size: 16
        }
      }
    }
  }
  attr {
    key: "shared_name"
    value {
      s: ""
    }
  }
}
node {
  name: "ConvOnlyResNet/block-1/pre-bn/gamma/Assign"
  op: "Assign"
  input: "ConvOnlyResNet/block-1/pre-bn/gamma"
  input: "ConvOnlyResNet/block-1/pre-bn/gamma/Initializer/ones"
  attr {
    key: "T"
    value {
      type: DT_FLOAT
    }
  }
  attr {
    key: "_class"
    value {
      list {
        s: "loc:@ConvOnlyResNet/block-1/pre-bn/gamma"
      }
    }
  }
  attr {
    key: "use_locking"
    value {
      b: true
    }
  }
  attr {
    key: "validate_shape"
    value {
      b: true
    }
  }
}
node {
  name: "ConvOnlyResNet/block-1/pre-bn/gamma/read"
  op: "Identity"
  input: "ConvOnlyResNet/block-1/pre-bn/gamma"
  attr {
    key: "T"
    value {
      type: DT_FLOAT
    }
  }
  attr {
    key: "_class"
    value {
      list {
        s: "loc:@ConvOnlyResNet/block-1/pre-bn/gamma"
      }
    }
  }
}
node {
  name: "ConvOnlyResNet/block-1/pre-bn/beta/Initializer/zeros"
  op: "Const"
  attr {
    key: "_class"
    value {
      list {
        s: "loc:@ConvOnlyResNet/block-1/pre-bn/beta"
      }
    }
  }
  attr {
    key: "dtype"
    value {
      type: DT_FLOAT
    }
  }
  attr {
    key: "value"
    value {
      tensor {
        dtype: DT_FLOAT
        tensor_shape {
          dim {
            size: 16
          }
        }
        float_val: 0.0
      }
    }
  }
}
node {
  name: "ConvOnlyResNet/block-1/pre-bn/beta"
  op: "VariableV2"
  attr {
    key: "_class"
    value {
      list {
        s: "loc:@ConvOnlyResNet/block-1/pre-bn/beta"
      }
    }
  }
  attr {
    key: "container"
    value {
      s: ""
    }
  }
  attr {
    key: "dtype"
    value {
      type: DT_FLOAT
    }
  }
  attr {
    key: "shape"
    value {
      shape {
        dim {
          size: 16
        }
      }
    }
  }
  attr {
    key: "shared_name"
    value {
      s: ""
    }
  }
}
node {
  name: "ConvOnlyResNet/block-1/pre-bn/beta/Assign"
  op: "Assign"
  input: "ConvOnlyResNet/block-1/pre-bn/beta"
  input: "ConvOnlyResNet/block-1/pre-bn/beta/Initializer/zeros"
  attr {
    key: "T"
    value {
      type: DT_FLOAT
    }
  }
  attr {
    key: "_class"
    value {
      list {
        s: "loc:@ConvOnlyResNet/block-1/pre-bn/beta"
      }
    }
  }
  attr {
    key: "use_locking"
    value {
      b: true
    }
  }
  attr {
    key: "validate_shape"
    value {
      b: true
    }
  }
}
node {
  name: "ConvOnlyResNet/block-1/pre-bn/beta/read"
  op: "Identity"
  input: "ConvOnlyResNet/block-1/pre-bn/beta"
  attr {
    key: "T"
    value {
      type: DT_FLOAT
    }
  }
  attr {
    key: "_class"
    value {
      list {
        s: "loc:@ConvOnlyResNet/block-1/pre-bn/beta"
      }
    }
  }
}
node {
  name: "ConvOnlyResNet/block-1/pre-bn/moving_mean/Initializer/zeros"
  op: "Const"
  attr {
    key: "_class"
    value {
      list {
        s: "loc:@ConvOnlyResNet/block-1/pre-bn/moving_mean"
      }
    }
  }
  attr {
    key: "dtype"
    value {
      type: DT_FLOAT
    }
  }
  attr {
    key: "value"
    value {
      tensor {
        dtype: DT_FLOAT
        tensor_shape {
          dim {
            size: 16
          }
        }
        float_val: 0.0
      }
    }
  }
}
node {
  name: "ConvOnlyResNet/block-1/pre-bn/moving_mean"
  op: "VariableV2"
  attr {
    key: "_class"
    value {
      list {
        s: "loc:@ConvOnlyResNet/block-1/pre-bn/moving_mean"
      }
    }
  }
  attr {
    key: "container"
    value {
      s: ""
    }
  }
  attr {
    key: "dtype"
    value {
      type: DT_FLOAT
    }
  }
  attr {
    key: "shape"
    value {
      shape {
        dim {
          size: 16
        }
      }
    }
  }
  attr {
    key: "shared_name"
    value {
      s: ""
    }
  }
}
node {
  name: "ConvOnlyResNet/block-1/pre-bn/moving_mean/Assign"
  op: "Assign"
  input: "ConvOnlyResNet/block-1/pre-bn/moving_mean"
  input: "ConvOnlyResNet/block-1/pre-bn/moving_mean/Initializer/zeros"
  attr {
    key: "T"
    value {
      type: DT_FLOAT
    }
  }
  attr {
    key: "_class"
    value {
      list {
        s: "loc:@ConvOnlyResNet/block-1/pre-bn/moving_mean"
      }
    }
  }
  attr {
    key: "use_locking"
    value {
      b: true
    }
  }
  attr {
    key: "validate_shape"
    value {
      b: true
    }
  }
}
node {
  name: "ConvOnlyResNet/block-1/pre-bn/moving_mean/read"
  op: "Identity"
  input: "ConvOnlyResNet/block-1/pre-bn/moving_mean"
  attr {
    key: "T"
    value {
      type: DT_FLOAT
    }
  }
  attr {
    key: "_class"
    value {
      list {
        s: "loc:@ConvOnlyResNet/block-1/pre-bn/moving_mean"
      }
    }
  }
}
node {
  name: "ConvOnlyResNet/block-1/pre-bn/moving_variance/Initializer/ones"
  op: "Const"
  attr {
    key: "_class"
    value {
      list {
        s: "loc:@ConvOnlyResNet/block-1/pre-bn/moving_variance"
      }
    }
  }
  attr {
    key: "dtype"
    value {
      type: DT_FLOAT
    }
  }
  attr {
    key: "value"
    value {
      tensor {
        dtype: DT_FLOAT
        tensor_shape {
          dim {
            size: 16
          }
        }
        float_val: 1.0
      }
    }
  }
}
node {
  name: "ConvOnlyResNet/block-1/pre-bn/moving_variance"
  op: "VariableV2"
  attr {
    key: "_class"
    value {
      list {
        s: "loc:@ConvOnlyResNet/block-1/pre-bn/moving_variance"
      }
    }
  }
  attr {
    key: "container"
    value {
      s: ""
    }
  }
  attr {
    key: "dtype"
    value {
      type: DT_FLOAT
    }
  }
  attr {
    key: "shape"
    value {
      shape {
        dim {
          size: 16
        }
      }
    }
  }
  attr {
    key: "shared_name"
    value {
      s: ""
    }
  }
}
node {
  name: "ConvOnlyResNet/block-1/pre-bn/moving_variance/Assign"
  op: "Assign"
  input: "ConvOnlyResNet/block-1/pre-bn/moving_variance"
  input: "ConvOnlyResNet/block-1/pre-bn/moving_variance/Initializer/ones"
  attr {
    key: "T"
    value {
      type: DT_FLOAT
    }
  }
  attr {
    key: "_class"
    value {
      list {
        s: "loc:@ConvOnlyResNet/block-1/pre-bn/moving_variance"
      }
    }
  }
  attr {
    key: "use_locking"
    value {
      b: true
    }
  }
  attr {
    key: "validate_shape"
    value {
      b: true
    }
  }
}
node {
  name: "ConvOnlyResNet/block-1/pre-bn/moving_variance/read"
  op: "Identity"
  input: "ConvOnlyResNet/block-1/pre-bn/moving_variance"
  attr {
    key: "T"
    value {
      type: DT_FLOAT
    }
  }
  attr {
    key: "_class"
    value {
      list {
        s: "loc:@ConvOnlyResNet/block-1/pre-bn/moving_variance"
      }
    }
  }
}
node {
  name: "MSDeepDet/ConvOnlyResNet/block-1/pre-bn/FusedBatchNorm"
  op: "FusedBatchNorm"
  input: "MSDeepDet/ConvOnlyResNet/init_conv/BiasAdd"
  input: "ConvOnlyResNet/block-1/pre-bn/gamma/read"
  input: "ConvOnlyResNet/block-1/pre-bn/beta/read"
  input: "ConvOnlyResNet/block-1/pre-bn/moving_mean/read"
  input: "ConvOnlyResNet/block-1/pre-bn/moving_variance/read"
  attr {
    key: "T"
    value {
      type: DT_FLOAT
    }
  }
  attr {
    key: "data_format"
    value {
      s: "NHWC"
    }
  }
  attr {
    key: "epsilon"
    value {
      f: 1.0009999641624745e-05
    }
  }
  attr {
    key: "is_training"
    value {
      b: false
    }
  }
}
node {
  name: "MSDeepDet/ConvOnlyResNet/block-1/pre-bn/Const"
  op: "Const"
  attr {
    key: "dtype"
    value {
      type: DT_FLOAT
    }
  }
  attr {
    key: "value"
    value {
      tensor {
        dtype: DT_FLOAT
        tensor_shape {
        }
        float_val: 0.8999999761581421
      }
    }
  }
}
node {
  name: "MSDeepDet/ConvOnlyResNet/block-1/LeakyRelu/alpha"
  op: "Const"
  attr {
    key: "dtype"
    value {
      type: DT_FLOAT
    }
  }
  attr {
    key: "value"
    value {
      tensor {
        dtype: DT_FLOAT
        tensor_shape {
        }
        float_val: 0.20000000298023224
      }
    }
  }
}
node {
  name: "MSDeepDet/ConvOnlyResNet/block-1/LeakyRelu/mul"
  op: "Mul"
  input: "MSDeepDet/ConvOnlyResNet/block-1/LeakyRelu/alpha"
  input: "MSDeepDet/ConvOnlyResNet/block-1/pre-bn/FusedBatchNorm"
  attr {
    key: "T"
    value {
      type: DT_FLOAT
    }
  }
}
node {
  name: "MSDeepDet/ConvOnlyResNet/block-1/LeakyRelu/Maximum"
  op: "Maximum"
  input: "MSDeepDet/ConvOnlyResNet/block-1/LeakyRelu/mul"
  input: "MSDeepDet/ConvOnlyResNet/block-1/pre-bn/FusedBatchNorm"
  attr {
    key: "T"
    value {
      type: DT_FLOAT
    }
  }
}
node {
  name: "ConvOnlyResNet/block-1/conv1/weights/Initializer/random_uniform/shape"
  op: "Const"
  attr {
    key: "_class"
    value {
      list {
        s: "loc:@ConvOnlyResNet/block-1/conv1/weights"
      }
    }
  }
  attr {
    key: "dtype"
    value {
      type: DT_INT32
    }
  }
  attr {
    key: "value"
    value {
      tensor {
        dtype: DT_INT32
        tensor_shape {
          dim {
            size: 4
          }
        }
        tensor_content: "\005\000\000\000\005\000\000\000\020\000\000\000\020\000\000\000"
      }
    }
  }
}
node {
  name: "ConvOnlyResNet/block-1/conv1/weights/Initializer/random_uniform/min"
  op: "Const"
  attr {
    key: "_class"
    value {
      list {
        s: "loc:@ConvOnlyResNet/block-1/conv1/weights"
      }
    }
  }
  attr {
    key: "dtype"
    value {
      type: DT_FLOAT
    }
  }
  attr {
    key: "value"
    value {
      tensor {
        dtype: DT_FLOAT
        tensor_shape {
        }
        float_val: -0.08660253882408142
      }
    }
  }
}
node {
  name: "ConvOnlyResNet/block-1/conv1/weights/Initializer/random_uniform/max"
  op: "Const"
  attr {
    key: "_class"
    value {
      list {
        s: "loc:@ConvOnlyResNet/block-1/conv1/weights"
      }
    }
  }
  attr {
    key: "dtype"
    value {
      type: DT_FLOAT
    }
  }
  attr {
    key: "value"
    value {
      tensor {
        dtype: DT_FLOAT
        tensor_shape {
        }
        float_val: 0.08660253882408142
      }
    }
  }
}
node {
  name: "ConvOnlyResNet/block-1/conv1/weights/Initializer/random_uniform/RandomUniform"
  op: "RandomUniform"
  input: "ConvOnlyResNet/block-1/conv1/weights/Initializer/random_uniform/shape"
  attr {
    key: "T"
    value {
      type: DT_INT32
    }
  }
  attr {
    key: "_class"
    value {
      list {
        s: "loc:@ConvOnlyResNet/block-1/conv1/weights"
      }
    }
  }
  attr {
    key: "dtype"
    value {
      type: DT_FLOAT
    }
  }
  attr {
    key: "seed"
    value {
      i: 0
    }
  }
  attr {
    key: "seed2"
    value {
      i: 0
    }
  }
}
node {
  name: "ConvOnlyResNet/block-1/conv1/weights/Initializer/random_uniform/sub"
  op: "Sub"
  input: "ConvOnlyResNet/block-1/conv1/weights/Initializer/random_uniform/max"
  input: "ConvOnlyResNet/block-1/conv1/weights/Initializer/random_uniform/min"
  attr {
    key: "T"
    value {
      type: DT_FLOAT
    }
  }
  attr {
    key: "_class"
    value {
      list {
        s: "loc:@ConvOnlyResNet/block-1/conv1/weights"
      }
    }
  }
}
node {
  name: "ConvOnlyResNet/block-1/conv1/weights/Initializer/random_uniform/mul"
  op: "Mul"
  input: "ConvOnlyResNet/block-1/conv1/weights/Initializer/random_uniform/RandomUniform"
  input: "ConvOnlyResNet/block-1/conv1/weights/Initializer/random_uniform/sub"
  attr {
    key: "T"
    value {
      type: DT_FLOAT
    }
  }
  attr {
    key: "_class"
    value {
      list {
        s: "loc:@ConvOnlyResNet/block-1/conv1/weights"
      }
    }
  }
}
node {
  name: "ConvOnlyResNet/block-1/conv1/weights/Initializer/random_uniform"
  op: "Add"
  input: "ConvOnlyResNet/block-1/conv1/weights/Initializer/random_uniform/mul"
  input: "ConvOnlyResNet/block-1/conv1/weights/Initializer/random_uniform/min"
  attr {
    key: "T"
    value {
      type: DT_FLOAT
    }
  }
  attr {
    key: "_class"
    value {
      list {
        s: "loc:@ConvOnlyResNet/block-1/conv1/weights"
      }
    }
  }
}
node {
  name: "ConvOnlyResNet/block-1/conv1/weights"
  op: "VariableV2"
  attr {
    key: "_class"
    value {
      list {
        s: "loc:@ConvOnlyResNet/block-1/conv1/weights"
      }
    }
  }
  attr {
    key: "container"
    value {
      s: ""
    }
  }
  attr {
    key: "dtype"
    value {
      type: DT_FLOAT
    }
  }
  attr {
    key: "shape"
    value {
      shape {
        dim {
          size: 5
        }
        dim {
          size: 5
        }
        dim {
          size: 16
        }
        dim {
          size: 16
        }
      }
    }
  }
  attr {
    key: "shared_name"
    value {
      s: ""
    }
  }
}
node {
  name: "ConvOnlyResNet/block-1/conv1/weights/Assign"
  op: "Assign"
  input: "ConvOnlyResNet/block-1/conv1/weights"
  input: "ConvOnlyResNet/block-1/conv1/weights/Initializer/random_uniform"
  attr {
    key: "T"
    value {
      type: DT_FLOAT
    }
  }
  attr {
    key: "_class"
    value {
      list {
        s: "loc:@ConvOnlyResNet/block-1/conv1/weights"
      }
    }
  }
  attr {
    key: "use_locking"
    value {
      b: true
    }
  }
  attr {
    key: "validate_shape"
    value {
      b: true
    }
  }
}
node {
  name: "ConvOnlyResNet/block-1/conv1/weights/read"
  op: "Identity"
  input: "ConvOnlyResNet/block-1/conv1/weights"
  attr {
    key: "T"
    value {
      type: DT_FLOAT
    }
  }
  attr {
    key: "_class"
    value {
      list {
        s: "loc:@ConvOnlyResNet/block-1/conv1/weights"
      }
    }
  }
}
node {
  name: "ConvOnlyResNet/block-1/conv1/biases/Initializer/zeros"
  op: "Const"
  attr {
    key: "_class"
    value {
      list {
        s: "loc:@ConvOnlyResNet/block-1/conv1/biases"
      }
    }
  }
  attr {
    key: "dtype"
    value {
      type: DT_FLOAT
    }
  }
  attr {
    key: "value"
    value {
      tensor {
        dtype: DT_FLOAT
        tensor_shape {
          dim {
            size: 16
          }
        }
        float_val: 0.0
      }
    }
  }
}
node {
  name: "ConvOnlyResNet/block-1/conv1/biases"
  op: "VariableV2"
  attr {
    key: "_class"
    value {
      list {
        s: "loc:@ConvOnlyResNet/block-1/conv1/biases"
      }
    }
  }
  attr {
    key: "container"
    value {
      s: ""
    }
  }
  attr {
    key: "dtype"
    value {
      type: DT_FLOAT
    }
  }
  attr {
    key: "shape"
    value {
      shape {
        dim {
          size: 16
        }
      }
    }
  }
  attr {
    key: "shared_name"
    value {
      s: ""
    }
  }
}
node {
  name: "ConvOnlyResNet/block-1/conv1/biases/Assign"
  op: "Assign"
  input: "ConvOnlyResNet/block-1/conv1/biases"
  input: "ConvOnlyResNet/block-1/conv1/biases/Initializer/zeros"
  attr {
    key: "T"
    value {
      type: DT_FLOAT
    }
  }
  attr {
    key: "_class"
    value {
      list {
        s: "loc:@ConvOnlyResNet/block-1/conv1/biases"
      }
    }
  }
  attr {
    key: "use_locking"
    value {
      b: true
    }
  }
  attr {
    key: "validate_shape"
    value {
      b: true
    }
  }
}
node {
  name: "ConvOnlyResNet/block-1/conv1/biases/read"
  op: "Identity"
  input: "ConvOnlyResNet/block-1/conv1/biases"
  attr {
    key: "T"
    value {
      type: DT_FLOAT
    }
  }
  attr {
    key: "_class"
    value {
      list {
        s: "loc:@ConvOnlyResNet/block-1/conv1/biases"
      }
    }
  }
}
node {
  name: "MSDeepDet/ConvOnlyResNet/block-1/conv1/weights/tag"
  op: "Const"
  attr {
    key: "dtype"
    value {
      type: DT_STRING
    }
  }
  attr {
    key: "value"
    value {
      tensor {
        dtype: DT_STRING
        tensor_shape {
        }
        string_val: "MSDeepDet/ConvOnlyResNet/block-1/conv1/weights"
      }
    }
  }
}
node {
  name: "MSDeepDet/ConvOnlyResNet/block-1/conv1/weights"
  op: "HistogramSummary"
  input: "MSDeepDet/ConvOnlyResNet/block-1/conv1/weights/tag"
  input: "ConvOnlyResNet/block-1/conv1/weights/read"
  attr {
    key: "T"
    value {
      type: DT_FLOAT
    }
  }
}
node {
  name: "MSDeepDet/ConvOnlyResNet/block-1/conv1/biases/tag"
  op: "Const"
  attr {
    key: "dtype"
    value {
      type: DT_STRING
    }
  }
  attr {
    key: "value"
    value {
      tensor {
        dtype: DT_STRING
        tensor_shape {
        }
        string_val: "MSDeepDet/ConvOnlyResNet/block-1/conv1/biases"
      }
    }
  }
}
node {
  name: "MSDeepDet/ConvOnlyResNet/block-1/conv1/biases"
  op: "HistogramSummary"
  input: "MSDeepDet/ConvOnlyResNet/block-1/conv1/biases/tag"
  input: "ConvOnlyResNet/block-1/conv1/biases/read"
  attr {
    key: "T"
    value {
      type: DT_FLOAT
    }
  }
}
node {
  name: "MSDeepDet/ConvOnlyResNet/block-1/conv1/Conv2D"
  op: "Conv2D"
  input: "MSDeepDet/ConvOnlyResNet/block-1/LeakyRelu/Maximum"
  input: "ConvOnlyResNet/block-1/conv1/weights/read"
  attr {
    key: "T"
    value {
      type: DT_FLOAT
    }
  }
  attr {
    key: "data_format"
    value {
      s: "NHWC"
    }
  }
  attr {
    key: "dilations"
    value {
      list {
        i: 1
        i: 1
        i: 1
        i: 1
      }
    }
  }
  attr {
    key: "padding"
    value {
      s: "SAME"
    }
  }
  attr {
    key: "strides"
    value {
      list {
        i: 1
        i: 1
        i: 1
        i: 1
      }
    }
  }
  attr {
    key: "use_cudnn_on_gpu"
    value {
      b: true
    }
  }
}
node {
  name: "MSDeepDet/ConvOnlyResNet/block-1/conv1/BiasAdd"
  op: "BiasAdd"
  input: "MSDeepDet/ConvOnlyResNet/block-1/conv1/Conv2D"
  input: "ConvOnlyResNet/block-1/conv1/biases/read"
  attr {
    key: "T"
    value {
      type: DT_FLOAT
    }
  }
  attr {
    key: "data_format"
    value {
      s: "NHWC"
    }
  }
}
node {
  name: "ConvOnlyResNet/block-1/mid-bn/gamma/Initializer/ones"
  op: "Const"
  attr {
    key: "_class"
    value {
      list {
        s: "loc:@ConvOnlyResNet/block-1/mid-bn/gamma"
      }
    }
  }
  attr {
    key: "dtype"
    value {
      type: DT_FLOAT
    }
  }
  attr {
    key: "value"
    value {
      tensor {
        dtype: DT_FLOAT
        tensor_shape {
          dim {
            size: 16
          }
        }
        float_val: 1.0
      }
    }
  }
}
node {
  name: "ConvOnlyResNet/block-1/mid-bn/gamma"
  op: "VariableV2"
  attr {
    key: "_class"
    value {
      list {
        s: "loc:@ConvOnlyResNet/block-1/mid-bn/gamma"
      }
    }
  }
  attr {
    key: "container"
    value {
      s: ""
    }
  }
  attr {
    key: "dtype"
    value {
      type: DT_FLOAT
    }
  }
  attr {
    key: "shape"
    value {
      shape {
        dim {
          size: 16
        }
      }
    }
  }
  attr {
    key: "shared_name"
    value {
      s: ""
    }
  }
}
node {
  name: "ConvOnlyResNet/block-1/mid-bn/gamma/Assign"
  op: "Assign"
  input: "ConvOnlyResNet/block-1/mid-bn/gamma"
  input: "ConvOnlyResNet/block-1/mid-bn/gamma/Initializer/ones"
  attr {
    key: "T"
    value {
      type: DT_FLOAT
    }
  }
  attr {
    key: "_class"
    value {
      list {
        s: "loc:@ConvOnlyResNet/block-1/mid-bn/gamma"
      }
    }
  }
  attr {
    key: "use_locking"
    value {
      b: true
    }
  }
  attr {
    key: "validate_shape"
    value {
      b: true
    }
  }
}
node {
  name: "ConvOnlyResNet/block-1/mid-bn/gamma/read"
  op: "Identity"
  input: "ConvOnlyResNet/block-1/mid-bn/gamma"
  attr {
    key: "T"
    value {
      type: DT_FLOAT
    }
  }
  attr {
    key: "_class"
    value {
      list {
        s: "loc:@ConvOnlyResNet/block-1/mid-bn/gamma"
      }
    }
  }
}
node {
  name: "ConvOnlyResNet/block-1/mid-bn/beta/Initializer/zeros"
  op: "Const"
  attr {
    key: "_class"
    value {
      list {
        s: "loc:@ConvOnlyResNet/block-1/mid-bn/beta"
      }
    }
  }
  attr {
    key: "dtype"
    value {
      type: DT_FLOAT
    }
  }
  attr {
    key: "value"
    value {
      tensor {
        dtype: DT_FLOAT
        tensor_shape {
          dim {
            size: 16
          }
        }
        float_val: 0.0
      }
    }
  }
}
node {
  name: "ConvOnlyResNet/block-1/mid-bn/beta"
  op: "VariableV2"
  attr {
    key: "_class"
    value {
      list {
        s: "loc:@ConvOnlyResNet/block-1/mid-bn/beta"
      }
    }
  }
  attr {
    key: "container"
    value {
      s: ""
    }
  }
  attr {
    key: "dtype"
    value {
      type: DT_FLOAT
    }
  }
  attr {
    key: "shape"
    value {
      shape {
        dim {
          size: 16
        }
      }
    }
  }
  attr {
    key: "shared_name"
    value {
      s: ""
    }
  }
}
node {
  name: "ConvOnlyResNet/block-1/mid-bn/beta/Assign"
  op: "Assign"
  input: "ConvOnlyResNet/block-1/mid-bn/beta"
  input: "ConvOnlyResNet/block-1/mid-bn/beta/Initializer/zeros"
  attr {
    key: "T"
    value {
      type: DT_FLOAT
    }
  }
  attr {
    key: "_class"
    value {
      list {
        s: "loc:@ConvOnlyResNet/block-1/mid-bn/beta"
      }
    }
  }
  attr {
    key: "use_locking"
    value {
      b: true
    }
  }
  attr {
    key: "validate_shape"
    value {
      b: true
    }
  }
}
node {
  name: "ConvOnlyResNet/block-1/mid-bn/beta/read"
  op: "Identity"
  input: "ConvOnlyResNet/block-1/mid-bn/beta"
  attr {
    key: "T"
    value {
      type: DT_FLOAT
    }
  }
  attr {
    key: "_class"
    value {
      list {
        s: "loc:@ConvOnlyResNet/block-1/mid-bn/beta"
      }
    }
  }
}
node {
  name: "ConvOnlyResNet/block-1/mid-bn/moving_mean/Initializer/zeros"
  op: "Const"
  attr {
    key: "_class"
    value {
      list {
        s: "loc:@ConvOnlyResNet/block-1/mid-bn/moving_mean"
      }
    }
  }
  attr {
    key: "dtype"
    value {
      type: DT_FLOAT
    }
  }
  attr {
    key: "value"
    value {
      tensor {
        dtype: DT_FLOAT
        tensor_shape {
          dim {
            size: 16
          }
        }
        float_val: 0.0
      }
    }
  }
}
node {
  name: "ConvOnlyResNet/block-1/mid-bn/moving_mean"
  op: "VariableV2"
  attr {
    key: "_class"
    value {
      list {
        s: "loc:@ConvOnlyResNet/block-1/mid-bn/moving_mean"
      }
    }
  }
  attr {
    key: "container"
    value {
      s: ""
    }
  }
  attr {
    key: "dtype"
    value {
      type: DT_FLOAT
    }
  }
  attr {
    key: "shape"
    value {
      shape {
        dim {
          size: 16
        }
      }
    }
  }
  attr {
    key: "shared_name"
    value {
      s: ""
    }
  }
}
node {
  name: "ConvOnlyResNet/block-1/mid-bn/moving_mean/Assign"
  op: "Assign"
  input: "ConvOnlyResNet/block-1/mid-bn/moving_mean"
  input: "ConvOnlyResNet/block-1/mid-bn/moving_mean/Initializer/zeros"
  attr {
    key: "T"
    value {
      type: DT_FLOAT
    }
  }
  attr {
    key: "_class"
    value {
      list {
        s: "loc:@ConvOnlyResNet/block-1/mid-bn/moving_mean"
      }
    }
  }
  attr {
    key: "use_locking"
    value {
      b: true
    }
  }
  attr {
    key: "validate_shape"
    value {
      b: true
    }
  }
}
node {
  name: "ConvOnlyResNet/block-1/mid-bn/moving_mean/read"
  op: "Identity"
  input: "ConvOnlyResNet/block-1/mid-bn/moving_mean"
  attr {
    key: "T"
    value {
      type: DT_FLOAT
    }
  }
  attr {
    key: "_class"
    value {
      list {
        s: "loc:@ConvOnlyResNet/block-1/mid-bn/moving_mean"
      }
    }
  }
}
node {
  name: "ConvOnlyResNet/block-1/mid-bn/moving_variance/Initializer/ones"
  op: "Const"
  attr {
    key: "_class"
    value {
      list {
        s: "loc:@ConvOnlyResNet/block-1/mid-bn/moving_variance"
      }
    }
  }
  attr {
    key: "dtype"
    value {
      type: DT_FLOAT
    }
  }
  attr {
    key: "value"
    value {
      tensor {
        dtype: DT_FLOAT
        tensor_shape {
          dim {
            size: 16
          }
        }
        float_val: 1.0
      }
    }
  }
}
node {
  name: "ConvOnlyResNet/block-1/mid-bn/moving_variance"
  op: "VariableV2"
  attr {
    key: "_class"
    value {
      list {
        s: "loc:@ConvOnlyResNet/block-1/mid-bn/moving_variance"
      }
    }
  }
  attr {
    key: "container"
    value {
      s: ""
    }
  }
  attr {
    key: "dtype"
    value {
      type: DT_FLOAT
    }
  }
  attr {
    key: "shape"
    value {
      shape {
        dim {
          size: 16
        }
      }
    }
  }
  attr {
    key: "shared_name"
    value {
      s: ""
    }
  }
}
node {
  name: "ConvOnlyResNet/block-1/mid-bn/moving_variance/Assign"
  op: "Assign"
  input: "ConvOnlyResNet/block-1/mid-bn/moving_variance"
  input: "ConvOnlyResNet/block-1/mid-bn/moving_variance/Initializer/ones"
  attr {
    key: "T"
    value {
      type: DT_FLOAT
    }
  }
  attr {
    key: "_class"
    value {
      list {
        s: "loc:@ConvOnlyResNet/block-1/mid-bn/moving_variance"
      }
    }
  }
  attr {
    key: "use_locking"
    value {
      b: true
    }
  }
  attr {
    key: "validate_shape"
    value {
      b: true
    }
  }
}
node {
  name: "ConvOnlyResNet/block-1/mid-bn/moving_variance/read"
  op: "Identity"
  input: "ConvOnlyResNet/block-1/mid-bn/moving_variance"
  attr {
    key: "T"
    value {
      type: DT_FLOAT
    }
  }
  attr {
    key: "_class"
    value {
      list {
        s: "loc:@ConvOnlyResNet/block-1/mid-bn/moving_variance"
      }
    }
  }
}
node {
  name: "MSDeepDet/ConvOnlyResNet/block-1/mid-bn/FusedBatchNorm"
  op: "FusedBatchNorm"
  input: "MSDeepDet/ConvOnlyResNet/block-1/conv1/BiasAdd"
  input: "ConvOnlyResNet/block-1/mid-bn/gamma/read"
  input: "ConvOnlyResNet/block-1/mid-bn/beta/read"
  input: "ConvOnlyResNet/block-1/mid-bn/moving_mean/read"
  input: "ConvOnlyResNet/block-1/mid-bn/moving_variance/read"
  attr {
    key: "T"
    value {
      type: DT_FLOAT
    }
  }
  attr {
    key: "data_format"
    value {
      s: "NHWC"
    }
  }
  attr {
    key: "epsilon"
    value {
      f: 1.0009999641624745e-05
    }
  }
  attr {
    key: "is_training"
    value {
      b: false
    }
  }
}
node {
  name: "MSDeepDet/ConvOnlyResNet/block-1/mid-bn/Const"
  op: "Const"
  attr {
    key: "dtype"
    value {
      type: DT_FLOAT
    }
  }
  attr {
    key: "value"
    value {
      tensor {
        dtype: DT_FLOAT
        tensor_shape {
        }
        float_val: 0.8999999761581421
      }
    }
  }
}
node {
  name: "MSDeepDet/ConvOnlyResNet/block-1/LeakyRelu_1/alpha"
  op: "Const"
  attr {
    key: "dtype"
    value {
      type: DT_FLOAT
    }
  }
  attr {
    key: "value"
    value {
      tensor {
        dtype: DT_FLOAT
        tensor_shape {
        }
        float_val: 0.20000000298023224
      }
    }
  }
}
node {
  name: "MSDeepDet/ConvOnlyResNet/block-1/LeakyRelu_1/mul"
  op: "Mul"
  input: "MSDeepDet/ConvOnlyResNet/block-1/LeakyRelu_1/alpha"
  input: "MSDeepDet/ConvOnlyResNet/block-1/mid-bn/FusedBatchNorm"
  attr {
    key: "T"
    value {
      type: DT_FLOAT
    }
  }
}
node {
  name: "MSDeepDet/ConvOnlyResNet/block-1/LeakyRelu_1/Maximum"
  op: "Maximum"
  input: "MSDeepDet/ConvOnlyResNet/block-1/LeakyRelu_1/mul"
  input: "MSDeepDet/ConvOnlyResNet/block-1/mid-bn/FusedBatchNorm"
  attr {
    key: "T"
    value {
      type: DT_FLOAT
    }
  }
}
node {
  name: "ConvOnlyResNet/block-1/conv2/weights/Initializer/random_uniform/shape"
  op: "Const"
  attr {
    key: "_class"
    value {
      list {
        s: "loc:@ConvOnlyResNet/block-1/conv2/weights"
      }
    }
  }
  attr {
    key: "dtype"
    value {
      type: DT_INT32
    }
  }
  attr {
    key: "value"
    value {
      tensor {
        dtype: DT_INT32
        tensor_shape {
          dim {
            size: 4
          }
        }
        tensor_content: "\005\000\000\000\005\000\000\000\020\000\000\000\020\000\000\000"
      }
    }
  }
}
node {
  name: "ConvOnlyResNet/block-1/conv2/weights/Initializer/random_uniform/min"
  op: "Const"
  attr {
    key: "_class"
    value {
      list {
        s: "loc:@ConvOnlyResNet/block-1/conv2/weights"
      }
    }
  }
  attr {
    key: "dtype"
    value {
      type: DT_FLOAT
    }
  }
  attr {
    key: "value"
    value {
      tensor {
        dtype: DT_FLOAT
        tensor_shape {
        }
        float_val: -0.08660253882408142
      }
    }
  }
}
node {
  name: "ConvOnlyResNet/block-1/conv2/weights/Initializer/random_uniform/max"
  op: "Const"
  attr {
    key: "_class"
    value {
      list {
        s: "loc:@ConvOnlyResNet/block-1/conv2/weights"
      }
    }
  }
  attr {
    key: "dtype"
    value {
      type: DT_FLOAT
    }
  }
  attr {
    key: "value"
    value {
      tensor {
        dtype: DT_FLOAT
        tensor_shape {
        }
        float_val: 0.08660253882408142
      }
    }
  }
}
node {
  name: "ConvOnlyResNet/block-1/conv2/weights/Initializer/random_uniform/RandomUniform"
  op: "RandomUniform"
  input: "ConvOnlyResNet/block-1/conv2/weights/Initializer/random_uniform/shape"
  attr {
    key: "T"
    value {
      type: DT_INT32
    }
  }
  attr {
    key: "_class"
    value {
      list {
        s: "loc:@ConvOnlyResNet/block-1/conv2/weights"
      }
    }
  }
  attr {
    key: "dtype"
    value {
      type: DT_FLOAT
    }
  }
  attr {
    key: "seed"
    value {
      i: 0
    }
  }
  attr {
    key: "seed2"
    value {
      i: 0
    }
  }
}
node {
  name: "ConvOnlyResNet/block-1/conv2/weights/Initializer/random_uniform/sub"
  op: "Sub"
  input: "ConvOnlyResNet/block-1/conv2/weights/Initializer/random_uniform/max"
  input: "ConvOnlyResNet/block-1/conv2/weights/Initializer/random_uniform/min"
  attr {
    key: "T"
    value {
      type: DT_FLOAT
    }
  }
  attr {
    key: "_class"
    value {
      list {
        s: "loc:@ConvOnlyResNet/block-1/conv2/weights"
      }
    }
  }
}
node {
  name: "ConvOnlyResNet/block-1/conv2/weights/Initializer/random_uniform/mul"
  op: "Mul"
  input: "ConvOnlyResNet/block-1/conv2/weights/Initializer/random_uniform/RandomUniform"
  input: "ConvOnlyResNet/block-1/conv2/weights/Initializer/random_uniform/sub"
  attr {
    key: "T"
    value {
      type: DT_FLOAT
    }
  }
  attr {
    key: "_class"
    value {
      list {
        s: "loc:@ConvOnlyResNet/block-1/conv2/weights"
      }
    }
  }
}
node {
  name: "ConvOnlyResNet/block-1/conv2/weights/Initializer/random_uniform"
  op: "Add"
  input: "ConvOnlyResNet/block-1/conv2/weights/Initializer/random_uniform/mul"
  input: "ConvOnlyResNet/block-1/conv2/weights/Initializer/random_uniform/min"
  attr {
    key: "T"
    value {
      type: DT_FLOAT
    }
  }
  attr {
    key: "_class"
    value {
      list {
        s: "loc:@ConvOnlyResNet/block-1/conv2/weights"
      }
    }
  }
}
node {
  name: "ConvOnlyResNet/block-1/conv2/weights"
  op: "VariableV2"
  attr {
    key: "_class"
    value {
      list {
        s: "loc:@ConvOnlyResNet/block-1/conv2/weights"
      }
    }
  }
  attr {
    key: "container"
    value {
      s: ""
    }
  }
  attr {
    key: "dtype"
    value {
      type: DT_FLOAT
    }
  }
  attr {
    key: "shape"
    value {
      shape {
        dim {
          size: 5
        }
        dim {
          size: 5
        }
        dim {
          size: 16
        }
        dim {
          size: 16
        }
      }
    }
  }
  attr {
    key: "shared_name"
    value {
      s: ""
    }
  }
}
node {
  name: "ConvOnlyResNet/block-1/conv2/weights/Assign"
  op: "Assign"
  input: "ConvOnlyResNet/block-1/conv2/weights"
  input: "ConvOnlyResNet/block-1/conv2/weights/Initializer/random_uniform"
  attr {
    key: "T"
    value {
      type: DT_FLOAT
    }
  }
  attr {
    key: "_class"
    value {
      list {
        s: "loc:@ConvOnlyResNet/block-1/conv2/weights"
      }
    }
  }
  attr {
    key: "use_locking"
    value {
      b: true
    }
  }
  attr {
    key: "validate_shape"
    value {
      b: true
    }
  }
}
node {
  name: "ConvOnlyResNet/block-1/conv2/weights/read"
  op: "Identity"
  input: "ConvOnlyResNet/block-1/conv2/weights"
  attr {
    key: "T"
    value {
      type: DT_FLOAT
    }
  }
  attr {
    key: "_class"
    value {
      list {
        s: "loc:@ConvOnlyResNet/block-1/conv2/weights"
      }
    }
  }
}
node {
  name: "ConvOnlyResNet/block-1/conv2/biases/Initializer/zeros"
  op: "Const"
  attr {
    key: "_class"
    value {
      list {
        s: "loc:@ConvOnlyResNet/block-1/conv2/biases"
      }
    }
  }
  attr {
    key: "dtype"
    value {
      type: DT_FLOAT
    }
  }
  attr {
    key: "value"
    value {
      tensor {
        dtype: DT_FLOAT
        tensor_shape {
          dim {
            size: 16
          }
        }
        float_val: 0.0
      }
    }
  }
}
node {
  name: "ConvOnlyResNet/block-1/conv2/biases"
  op: "VariableV2"
  attr {
    key: "_class"
    value {
      list {
        s: "loc:@ConvOnlyResNet/block-1/conv2/biases"
      }
    }
  }
  attr {
    key: "container"
    value {
      s: ""
    }
  }
  attr {
    key: "dtype"
    value {
      type: DT_FLOAT
    }
  }
  attr {
    key: "shape"
    value {
      shape {
        dim {
          size: 16
        }
      }
    }
  }
  attr {
    key: "shared_name"
    value {
      s: ""
    }
  }
}
node {
  name: "ConvOnlyResNet/block-1/conv2/biases/Assign"
  op: "Assign"
  input: "ConvOnlyResNet/block-1/conv2/biases"
  input: "ConvOnlyResNet/block-1/conv2/biases/Initializer/zeros"
  attr {
    key: "T"
    value {
      type: DT_FLOAT
    }
  }
  attr {
    key: "_class"
    value {
      list {
        s: "loc:@ConvOnlyResNet/block-1/conv2/biases"
      }
    }
  }
  attr {
    key: "use_locking"
    value {
      b: true
    }
  }
  attr {
    key: "validate_shape"
    value {
      b: true
    }
  }
}
node {
  name: "ConvOnlyResNet/block-1/conv2/biases/read"
  op: "Identity"
  input: "ConvOnlyResNet/block-1/conv2/biases"
  attr {
    key: "T"
    value {
      type: DT_FLOAT
    }
  }
  attr {
    key: "_class"
    value {
      list {
        s: "loc:@ConvOnlyResNet/block-1/conv2/biases"
      }
    }
  }
}
node {
  name: "MSDeepDet/ConvOnlyResNet/block-1/conv2/weights/tag"
  op: "Const"
  attr {
    key: "dtype"
    value {
      type: DT_STRING
    }
  }
  attr {
    key: "value"
    value {
      tensor {
        dtype: DT_STRING
        tensor_shape {
        }
        string_val: "MSDeepDet/ConvOnlyResNet/block-1/conv2/weights"
      }
    }
  }
}
node {
  name: "MSDeepDet/ConvOnlyResNet/block-1/conv2/weights"
  op: "HistogramSummary"
  input: "MSDeepDet/ConvOnlyResNet/block-1/conv2/weights/tag"
  input: "ConvOnlyResNet/block-1/conv2/weights/read"
  attr {
    key: "T"
    value {
      type: DT_FLOAT
    }
  }
}
node {
  name: "MSDeepDet/ConvOnlyResNet/block-1/conv2/biases/tag"
  op: "Const"
  attr {
    key: "dtype"
    value {
      type: DT_STRING
    }
  }
  attr {
    key: "value"
    value {
      tensor {
        dtype: DT_STRING
        tensor_shape {
        }
        string_val: "MSDeepDet/ConvOnlyResNet/block-1/conv2/biases"
      }
    }
  }
}
node {
  name: "MSDeepDet/ConvOnlyResNet/block-1/conv2/biases"
  op: "HistogramSummary"
  input: "MSDeepDet/ConvOnlyResNet/block-1/conv2/biases/tag"
  input: "ConvOnlyResNet/block-1/conv2/biases/read"
  attr {
    key: "T"
    value {
      type: DT_FLOAT
    }
  }
}
node {
  name: "MSDeepDet/ConvOnlyResNet/block-1/conv2/Conv2D"
  op: "Conv2D"
  input: "MSDeepDet/ConvOnlyResNet/block-1/LeakyRelu_1/Maximum"
  input: "ConvOnlyResNet/block-1/conv2/weights/read"
  attr {
    key: "T"
    value {
      type: DT_FLOAT
    }
  }
  attr {
    key: "data_format"
    value {
      s: "NHWC"
    }
  }
  attr {
    key: "dilations"
    value {
      list {
        i: 1
        i: 1
        i: 1
        i: 1
      }
    }
  }
  attr {
    key: "padding"
    value {
      s: "SAME"
    }
  }
  attr {
    key: "strides"
    value {
      list {
        i: 1
        i: 1
        i: 1
        i: 1
      }
    }
  }
  attr {
    key: "use_cudnn_on_gpu"
    value {
      b: true
    }
  }
}
node {
  name: "MSDeepDet/ConvOnlyResNet/block-1/conv2/BiasAdd"
  op: "BiasAdd"
  input: "MSDeepDet/ConvOnlyResNet/block-1/conv2/Conv2D"
  input: "ConvOnlyResNet/block-1/conv2/biases/read"
  attr {
    key: "T"
    value {
      type: DT_FLOAT
    }
  }
  attr {
    key: "data_format"
    value {
      s: "NHWC"
    }
  }
}
node {
  name: "MSDeepDet/ConvOnlyResNet/block-1/add"
  op: "Add"
  input: "MSDeepDet/ConvOnlyResNet/block-1/conv2/BiasAdd"
  input: "MSDeepDet/ConvOnlyResNet/init_conv/BiasAdd"
  attr {
    key: "T"
    value {
      type: DT_FLOAT
    }
  }
}
node {
  name: "ConvOnlyResNet/block-2/pre-bn/gamma/Initializer/ones"
  op: "Const"
  attr {
    key: "_class"
    value {
      list {
        s: "loc:@ConvOnlyResNet/block-2/pre-bn/gamma"
      }
    }
  }
  attr {
    key: "dtype"
    value {
      type: DT_FLOAT
    }
  }
  attr {
    key: "value"
    value {
      tensor {
        dtype: DT_FLOAT
        tensor_shape {
          dim {
            size: 16
          }
        }
        float_val: 1.0
      }
    }
  }
}
node {
  name: "ConvOnlyResNet/block-2/pre-bn/gamma"
  op: "VariableV2"
  attr {
    key: "_class"
    value {
      list {
        s: "loc:@ConvOnlyResNet/block-2/pre-bn/gamma"
      }
    }
  }
  attr {
    key: "container"
    value {
      s: ""
    }
  }
  attr {
    key: "dtype"
    value {
      type: DT_FLOAT
    }
  }
  attr {
    key: "shape"
    value {
      shape {
        dim {
          size: 16
        }
      }
    }
  }
  attr {
    key: "shared_name"
    value {
      s: ""
    }
  }
}
node {
  name: "ConvOnlyResNet/block-2/pre-bn/gamma/Assign"
  op: "Assign"
  input: "ConvOnlyResNet/block-2/pre-bn/gamma"
  input: "ConvOnlyResNet/block-2/pre-bn/gamma/Initializer/ones"
  attr {
    key: "T"
    value {
      type: DT_FLOAT
    }
  }
  attr {
    key: "_class"
    value {
      list {
        s: "loc:@ConvOnlyResNet/block-2/pre-bn/gamma"
      }
    }
  }
  attr {
    key: "use_locking"
    value {
      b: true
    }
  }
  attr {
    key: "validate_shape"
    value {
      b: true
    }
  }
}
node {
  name: "ConvOnlyResNet/block-2/pre-bn/gamma/read"
  op: "Identity"
  input: "ConvOnlyResNet/block-2/pre-bn/gamma"
  attr {
    key: "T"
    value {
      type: DT_FLOAT
    }
  }
  attr {
    key: "_class"
    value {
      list {
        s: "loc:@ConvOnlyResNet/block-2/pre-bn/gamma"
      }
    }
  }
}
node {
  name: "ConvOnlyResNet/block-2/pre-bn/beta/Initializer/zeros"
  op: "Const"
  attr {
    key: "_class"
    value {
      list {
        s: "loc:@ConvOnlyResNet/block-2/pre-bn/beta"
      }
    }
  }
  attr {
    key: "dtype"
    value {
      type: DT_FLOAT
    }
  }
  attr {
    key: "value"
    value {
      tensor {
        dtype: DT_FLOAT
        tensor_shape {
          dim {
            size: 16
          }
        }
        float_val: 0.0
      }
    }
  }
}
node {
  name: "ConvOnlyResNet/block-2/pre-bn/beta"
  op: "VariableV2"
  attr {
    key: "_class"
    value {
      list {
        s: "loc:@ConvOnlyResNet/block-2/pre-bn/beta"
      }
    }
  }
  attr {
    key: "container"
    value {
      s: ""
    }
  }
  attr {
    key: "dtype"
    value {
      type: DT_FLOAT
    }
  }
  attr {
    key: "shape"
    value {
      shape {
        dim {
          size: 16
        }
      }
    }
  }
  attr {
    key: "shared_name"
    value {
      s: ""
    }
  }
}
node {
  name: "ConvOnlyResNet/block-2/pre-bn/beta/Assign"
  op: "Assign"
  input: "ConvOnlyResNet/block-2/pre-bn/beta"
  input: "ConvOnlyResNet/block-2/pre-bn/beta/Initializer/zeros"
  attr {
    key: "T"
    value {
      type: DT_FLOAT
    }
  }
  attr {
    key: "_class"
    value {
      list {
        s: "loc:@ConvOnlyResNet/block-2/pre-bn/beta"
      }
    }
  }
  attr {
    key: "use_locking"
    value {
      b: true
    }
  }
  attr {
    key: "validate_shape"
    value {
      b: true
    }
  }
}
node {
  name: "ConvOnlyResNet/block-2/pre-bn/beta/read"
  op: "Identity"
  input: "ConvOnlyResNet/block-2/pre-bn/beta"
  attr {
    key: "T"
    value {
      type: DT_FLOAT
    }
  }
  attr {
    key: "_class"
    value {
      list {
        s: "loc:@ConvOnlyResNet/block-2/pre-bn/beta"
      }
    }
  }
}
node {
  name: "ConvOnlyResNet/block-2/pre-bn/moving_mean/Initializer/zeros"
  op: "Const"
  attr {
    key: "_class"
    value {
      list {
        s: "loc:@ConvOnlyResNet/block-2/pre-bn/moving_mean"
      }
    }
  }
  attr {
    key: "dtype"
    value {
      type: DT_FLOAT
    }
  }
  attr {
    key: "value"
    value {
      tensor {
        dtype: DT_FLOAT
        tensor_shape {
          dim {
            size: 16
          }
        }
        float_val: 0.0
      }
    }
  }
}
node {
  name: "ConvOnlyResNet/block-2/pre-bn/moving_mean"
  op: "VariableV2"
  attr {
    key: "_class"
    value {
      list {
        s: "loc:@ConvOnlyResNet/block-2/pre-bn/moving_mean"
      }
    }
  }
  attr {
    key: "container"
    value {
      s: ""
    }
  }
  attr {
    key: "dtype"
    value {
      type: DT_FLOAT
    }
  }
  attr {
    key: "shape"
    value {
      shape {
        dim {
          size: 16
        }
      }
    }
  }
  attr {
    key: "shared_name"
    value {
      s: ""
    }
  }
}
node {
  name: "ConvOnlyResNet/block-2/pre-bn/moving_mean/Assign"
  op: "Assign"
  input: "ConvOnlyResNet/block-2/pre-bn/moving_mean"
  input: "ConvOnlyResNet/block-2/pre-bn/moving_mean/Initializer/zeros"
  attr {
    key: "T"
    value {
      type: DT_FLOAT
    }
  }
  attr {
    key: "_class"
    value {
      list {
        s: "loc:@ConvOnlyResNet/block-2/pre-bn/moving_mean"
      }
    }
  }
  attr {
    key: "use_locking"
    value {
      b: true
    }
  }
  attr {
    key: "validate_shape"
    value {
      b: true
    }
  }
}
node {
  name: "ConvOnlyResNet/block-2/pre-bn/moving_mean/read"
  op: "Identity"
  input: "ConvOnlyResNet/block-2/pre-bn/moving_mean"
  attr {
    key: "T"
    value {
      type: DT_FLOAT
    }
  }
  attr {
    key: "_class"
    value {
      list {
        s: "loc:@ConvOnlyResNet/block-2/pre-bn/moving_mean"
      }
    }
  }
}
node {
  name: "ConvOnlyResNet/block-2/pre-bn/moving_variance/Initializer/ones"
  op: "Const"
  attr {
    key: "_class"
    value {
      list {
        s: "loc:@ConvOnlyResNet/block-2/pre-bn/moving_variance"
      }
    }
  }
  attr {
    key: "dtype"
    value {
      type: DT_FLOAT
    }
  }
  attr {
    key: "value"
    value {
      tensor {
        dtype: DT_FLOAT
        tensor_shape {
          dim {
            size: 16
          }
        }
        float_val: 1.0
      }
    }
  }
}
node {
  name: "ConvOnlyResNet/block-2/pre-bn/moving_variance"
  op: "VariableV2"
  attr {
    key: "_class"
    value {
      list {
        s: "loc:@ConvOnlyResNet/block-2/pre-bn/moving_variance"
      }
    }
  }
  attr {
    key: "container"
    value {
      s: ""
    }
  }
  attr {
    key: "dtype"
    value {
      type: DT_FLOAT
    }
  }
  attr {
    key: "shape"
    value {
      shape {
        dim {
          size: 16
        }
      }
    }
  }
  attr {
    key: "shared_name"
    value {
      s: ""
    }
  }
}
node {
  name: "ConvOnlyResNet/block-2/pre-bn/moving_variance/Assign"
  op: "Assign"
  input: "ConvOnlyResNet/block-2/pre-bn/moving_variance"
  input: "ConvOnlyResNet/block-2/pre-bn/moving_variance/Initializer/ones"
  attr {
    key: "T"
    value {
      type: DT_FLOAT
    }
  }
  attr {
    key: "_class"
    value {
      list {
        s: "loc:@ConvOnlyResNet/block-2/pre-bn/moving_variance"
      }
    }
  }
  attr {
    key: "use_locking"
    value {
      b: true
    }
  }
  attr {
    key: "validate_shape"
    value {
      b: true
    }
  }
}
node {
  name: "ConvOnlyResNet/block-2/pre-bn/moving_variance/read"
  op: "Identity"
  input: "ConvOnlyResNet/block-2/pre-bn/moving_variance"
  attr {
    key: "T"
    value {
      type: DT_FLOAT
    }
  }
  attr {
    key: "_class"
    value {
      list {
        s: "loc:@ConvOnlyResNet/block-2/pre-bn/moving_variance"
      }
    }
  }
}
node {
  name: "MSDeepDet/ConvOnlyResNet/block-2/pre-bn/FusedBatchNorm"
  op: "FusedBatchNorm"
  input: "MSDeepDet/ConvOnlyResNet/block-1/add"
  input: "ConvOnlyResNet/block-2/pre-bn/gamma/read"
  input: "ConvOnlyResNet/block-2/pre-bn/beta/read"
  input: "ConvOnlyResNet/block-2/pre-bn/moving_mean/read"
  input: "ConvOnlyResNet/block-2/pre-bn/moving_variance/read"
  attr {
    key: "T"
    value {
      type: DT_FLOAT
    }
  }
  attr {
    key: "data_format"
    value {
      s: "NHWC"
    }
  }
  attr {
    key: "epsilon"
    value {
      f: 1.0009999641624745e-05
    }
  }
  attr {
    key: "is_training"
    value {
      b: false
    }
  }
}
node {
  name: "MSDeepDet/ConvOnlyResNet/block-2/pre-bn/Const"
  op: "Const"
  attr {
    key: "dtype"
    value {
      type: DT_FLOAT
    }
  }
  attr {
    key: "value"
    value {
      tensor {
        dtype: DT_FLOAT
        tensor_shape {
        }
        float_val: 0.8999999761581421
      }
    }
  }
}
node {
  name: "MSDeepDet/ConvOnlyResNet/block-2/LeakyRelu/alpha"
  op: "Const"
  attr {
    key: "dtype"
    value {
      type: DT_FLOAT
    }
  }
  attr {
    key: "value"
    value {
      tensor {
        dtype: DT_FLOAT
        tensor_shape {
        }
        float_val: 0.20000000298023224
      }
    }
  }
}
node {
  name: "MSDeepDet/ConvOnlyResNet/block-2/LeakyRelu/mul"
  op: "Mul"
  input: "MSDeepDet/ConvOnlyResNet/block-2/LeakyRelu/alpha"
  input: "MSDeepDet/ConvOnlyResNet/block-2/pre-bn/FusedBatchNorm"
  attr {
    key: "T"
    value {
      type: DT_FLOAT
    }
  }
}
node {
  name: "MSDeepDet/ConvOnlyResNet/block-2/LeakyRelu/Maximum"
  op: "Maximum"
  input: "MSDeepDet/ConvOnlyResNet/block-2/LeakyRelu/mul"
  input: "MSDeepDet/ConvOnlyResNet/block-2/pre-bn/FusedBatchNorm"
  attr {
    key: "T"
    value {
      type: DT_FLOAT
    }
  }
}
node {
  name: "ConvOnlyResNet/block-2/conv1/weights/Initializer/random_uniform/shape"
  op: "Const"
  attr {
    key: "_class"
    value {
      list {
        s: "loc:@ConvOnlyResNet/block-2/conv1/weights"
      }
    }
  }
  attr {
    key: "dtype"
    value {
      type: DT_INT32
    }
  }
  attr {
    key: "value"
    value {
      tensor {
        dtype: DT_INT32
        tensor_shape {
          dim {
            size: 4
          }
        }
        tensor_content: "\005\000\000\000\005\000\000\000\020\000\000\000\020\000\000\000"
      }
    }
  }
}
node {
  name: "ConvOnlyResNet/block-2/conv1/weights/Initializer/random_uniform/min"
  op: "Const"
  attr {
    key: "_class"
    value {
      list {
        s: "loc:@ConvOnlyResNet/block-2/conv1/weights"
      }
    }
  }
  attr {
    key: "dtype"
    value {
      type: DT_FLOAT
    }
  }
  attr {
    key: "value"
    value {
      tensor {
        dtype: DT_FLOAT
        tensor_shape {
        }
        float_val: -0.08660253882408142
      }
    }
  }
}
node {
  name: "ConvOnlyResNet/block-2/conv1/weights/Initializer/random_uniform/max"
  op: "Const"
  attr {
    key: "_class"
    value {
      list {
        s: "loc:@ConvOnlyResNet/block-2/conv1/weights"
      }
    }
  }
  attr {
    key: "dtype"
    value {
      type: DT_FLOAT
    }
  }
  attr {
    key: "value"
    value {
      tensor {
        dtype: DT_FLOAT
        tensor_shape {
        }
        float_val: 0.08660253882408142
      }
    }
  }
}
node {
  name: "ConvOnlyResNet/block-2/conv1/weights/Initializer/random_uniform/RandomUniform"
  op: "RandomUniform"
  input: "ConvOnlyResNet/block-2/conv1/weights/Initializer/random_uniform/shape"
  attr {
    key: "T"
    value {
      type: DT_INT32
    }
  }
  attr {
    key: "_class"
    value {
      list {
        s: "loc:@ConvOnlyResNet/block-2/conv1/weights"
      }
    }
  }
  attr {
    key: "dtype"
    value {
      type: DT_FLOAT
    }
  }
  attr {
    key: "seed"
    value {
      i: 0
    }
  }
  attr {
    key: "seed2"
    value {
      i: 0
    }
  }
}
node {
  name: "ConvOnlyResNet/block-2/conv1/weights/Initializer/random_uniform/sub"
  op: "Sub"
  input: "ConvOnlyResNet/block-2/conv1/weights/Initializer/random_uniform/max"
  input: "ConvOnlyResNet/block-2/conv1/weights/Initializer/random_uniform/min"
  attr {
    key: "T"
    value {
      type: DT_FLOAT
    }
  }
  attr {
    key: "_class"
    value {
      list {
        s: "loc:@ConvOnlyResNet/block-2/conv1/weights"
      }
    }
  }
}
node {
  name: "ConvOnlyResNet/block-2/conv1/weights/Initializer/random_uniform/mul"
  op: "Mul"
  input: "ConvOnlyResNet/block-2/conv1/weights/Initializer/random_uniform/RandomUniform"
  input: "ConvOnlyResNet/block-2/conv1/weights/Initializer/random_uniform/sub"
  attr {
    key: "T"
    value {
      type: DT_FLOAT
    }
  }
  attr {
    key: "_class"
    value {
      list {
        s: "loc:@ConvOnlyResNet/block-2/conv1/weights"
      }
    }
  }
}
node {
  name: "ConvOnlyResNet/block-2/conv1/weights/Initializer/random_uniform"
  op: "Add"
  input: "ConvOnlyResNet/block-2/conv1/weights/Initializer/random_uniform/mul"
  input: "ConvOnlyResNet/block-2/conv1/weights/Initializer/random_uniform/min"
  attr {
    key: "T"
    value {
      type: DT_FLOAT
    }
  }
  attr {
    key: "_class"
    value {
      list {
        s: "loc:@ConvOnlyResNet/block-2/conv1/weights"
      }
    }
  }
}
node {
  name: "ConvOnlyResNet/block-2/conv1/weights"
  op: "VariableV2"
  attr {
    key: "_class"
    value {
      list {
        s: "loc:@ConvOnlyResNet/block-2/conv1/weights"
      }
    }
  }
  attr {
    key: "container"
    value {
      s: ""
    }
  }
  attr {
    key: "dtype"
    value {
      type: DT_FLOAT
    }
  }
  attr {
    key: "shape"
    value {
      shape {
        dim {
          size: 5
        }
        dim {
          size: 5
        }
        dim {
          size: 16
        }
        dim {
          size: 16
        }
      }
    }
  }
  attr {
    key: "shared_name"
    value {
      s: ""
    }
  }
}
node {
  name: "ConvOnlyResNet/block-2/conv1/weights/Assign"
  op: "Assign"
  input: "ConvOnlyResNet/block-2/conv1/weights"
  input: "ConvOnlyResNet/block-2/conv1/weights/Initializer/random_uniform"
  attr {
    key: "T"
    value {
      type: DT_FLOAT
    }
  }
  attr {
    key: "_class"
    value {
      list {
        s: "loc:@ConvOnlyResNet/block-2/conv1/weights"
      }
    }
  }
  attr {
    key: "use_locking"
    value {
      b: true
    }
  }
  attr {
    key: "validate_shape"
    value {
      b: true
    }
  }
}
node {
  name: "ConvOnlyResNet/block-2/conv1/weights/read"
  op: "Identity"
  input: "ConvOnlyResNet/block-2/conv1/weights"
  attr {
    key: "T"
    value {
      type: DT_FLOAT
    }
  }
  attr {
    key: "_class"
    value {
      list {
        s: "loc:@ConvOnlyResNet/block-2/conv1/weights"
      }
    }
  }
}
node {
  name: "ConvOnlyResNet/block-2/conv1/biases/Initializer/zeros"
  op: "Const"
  attr {
    key: "_class"
    value {
      list {
        s: "loc:@ConvOnlyResNet/block-2/conv1/biases"
      }
    }
  }
  attr {
    key: "dtype"
    value {
      type: DT_FLOAT
    }
  }
  attr {
    key: "value"
    value {
      tensor {
        dtype: DT_FLOAT
        tensor_shape {
          dim {
            size: 16
          }
        }
        float_val: 0.0
      }
    }
  }
}
node {
  name: "ConvOnlyResNet/block-2/conv1/biases"
  op: "VariableV2"
  attr {
    key: "_class"
    value {
      list {
        s: "loc:@ConvOnlyResNet/block-2/conv1/biases"
      }
    }
  }
  attr {
    key: "container"
    value {
      s: ""
    }
  }
  attr {
    key: "dtype"
    value {
      type: DT_FLOAT
    }
  }
  attr {
    key: "shape"
    value {
      shape {
        dim {
          size: 16
        }
      }
    }
  }
  attr {
    key: "shared_name"
    value {
      s: ""
    }
  }
}
node {
  name: "ConvOnlyResNet/block-2/conv1/biases/Assign"
  op: "Assign"
  input: "ConvOnlyResNet/block-2/conv1/biases"
  input: "ConvOnlyResNet/block-2/conv1/biases/Initializer/zeros"
  attr {
    key: "T"
    value {
      type: DT_FLOAT
    }
  }
  attr {
    key: "_class"
    value {
      list {
        s: "loc:@ConvOnlyResNet/block-2/conv1/biases"
      }
    }
  }
  attr {
    key: "use_locking"
    value {
      b: true
    }
  }
  attr {
    key: "validate_shape"
    value {
      b: true
    }
  }
}
node {
  name: "ConvOnlyResNet/block-2/conv1/biases/read"
  op: "Identity"
  input: "ConvOnlyResNet/block-2/conv1/biases"
  attr {
    key: "T"
    value {
      type: DT_FLOAT
    }
  }
  attr {
    key: "_class"
    value {
      list {
        s: "loc:@ConvOnlyResNet/block-2/conv1/biases"
      }
    }
  }
}
node {
  name: "MSDeepDet/ConvOnlyResNet/block-2/conv1/weights/tag"
  op: "Const"
  attr {
    key: "dtype"
    value {
      type: DT_STRING
    }
  }
  attr {
    key: "value"
    value {
      tensor {
        dtype: DT_STRING
        tensor_shape {
        }
        string_val: "MSDeepDet/ConvOnlyResNet/block-2/conv1/weights"
      }
    }
  }
}
node {
  name: "MSDeepDet/ConvOnlyResNet/block-2/conv1/weights"
  op: "HistogramSummary"
  input: "MSDeepDet/ConvOnlyResNet/block-2/conv1/weights/tag"
  input: "ConvOnlyResNet/block-2/conv1/weights/read"
  attr {
    key: "T"
    value {
      type: DT_FLOAT
    }
  }
}
node {
  name: "MSDeepDet/ConvOnlyResNet/block-2/conv1/biases/tag"
  op: "Const"
  attr {
    key: "dtype"
    value {
      type: DT_STRING
    }
  }
  attr {
    key: "value"
    value {
      tensor {
        dtype: DT_STRING
        tensor_shape {
        }
        string_val: "MSDeepDet/ConvOnlyResNet/block-2/conv1/biases"
      }
    }
  }
}
node {
  name: "MSDeepDet/ConvOnlyResNet/block-2/conv1/biases"
  op: "HistogramSummary"
  input: "MSDeepDet/ConvOnlyResNet/block-2/conv1/biases/tag"
  input: "ConvOnlyResNet/block-2/conv1/biases/read"
  attr {
    key: "T"
    value {
      type: DT_FLOAT
    }
  }
}
node {
  name: "MSDeepDet/ConvOnlyResNet/block-2/conv1/Conv2D"
  op: "Conv2D"
  input: "MSDeepDet/ConvOnlyResNet/block-2/LeakyRelu/Maximum"
  input: "ConvOnlyResNet/block-2/conv1/weights/read"
  attr {
    key: "T"
    value {
      type: DT_FLOAT
    }
  }
  attr {
    key: "data_format"
    value {
      s: "NHWC"
    }
  }
  attr {
    key: "dilations"
    value {
      list {
        i: 1
        i: 1
        i: 1
        i: 1
      }
    }
  }
  attr {
    key: "padding"
    value {
      s: "SAME"
    }
  }
  attr {
    key: "strides"
    value {
      list {
        i: 1
        i: 1
        i: 1
        i: 1
      }
    }
  }
  attr {
    key: "use_cudnn_on_gpu"
    value {
      b: true
    }
  }
}
node {
  name: "MSDeepDet/ConvOnlyResNet/block-2/conv1/BiasAdd"
  op: "BiasAdd"
  input: "MSDeepDet/ConvOnlyResNet/block-2/conv1/Conv2D"
  input: "ConvOnlyResNet/block-2/conv1/biases/read"
  attr {
    key: "T"
    value {
      type: DT_FLOAT
    }
  }
  attr {
    key: "data_format"
    value {
      s: "NHWC"
    }
  }
}
node {
  name: "ConvOnlyResNet/block-2/mid-bn/gamma/Initializer/ones"
  op: "Const"
  attr {
    key: "_class"
    value {
      list {
        s: "loc:@ConvOnlyResNet/block-2/mid-bn/gamma"
      }
    }
  }
  attr {
    key: "dtype"
    value {
      type: DT_FLOAT
    }
  }
  attr {
    key: "value"
    value {
      tensor {
        dtype: DT_FLOAT
        tensor_shape {
          dim {
            size: 16
          }
        }
        float_val: 1.0
      }
    }
  }
}
node {
  name: "ConvOnlyResNet/block-2/mid-bn/gamma"
  op: "VariableV2"
  attr {
    key: "_class"
    value {
      list {
        s: "loc:@ConvOnlyResNet/block-2/mid-bn/gamma"
      }
    }
  }
  attr {
    key: "container"
    value {
      s: ""
    }
  }
  attr {
    key: "dtype"
    value {
      type: DT_FLOAT
    }
  }
  attr {
    key: "shape"
    value {
      shape {
        dim {
          size: 16
        }
      }
    }
  }
  attr {
    key: "shared_name"
    value {
      s: ""
    }
  }
}
node {
  name: "ConvOnlyResNet/block-2/mid-bn/gamma/Assign"
  op: "Assign"
  input: "ConvOnlyResNet/block-2/mid-bn/gamma"
  input: "ConvOnlyResNet/block-2/mid-bn/gamma/Initializer/ones"
  attr {
    key: "T"
    value {
      type: DT_FLOAT
    }
  }
  attr {
    key: "_class"
    value {
      list {
        s: "loc:@ConvOnlyResNet/block-2/mid-bn/gamma"
      }
    }
  }
  attr {
    key: "use_locking"
    value {
      b: true
    }
  }
  attr {
    key: "validate_shape"
    value {
      b: true
    }
  }
}
node {
  name: "ConvOnlyResNet/block-2/mid-bn/gamma/read"
  op: "Identity"
  input: "ConvOnlyResNet/block-2/mid-bn/gamma"
  attr {
    key: "T"
    value {
      type: DT_FLOAT
    }
  }
  attr {
    key: "_class"
    value {
      list {
        s: "loc:@ConvOnlyResNet/block-2/mid-bn/gamma"
      }
    }
  }
}
node {
  name: "ConvOnlyResNet/block-2/mid-bn/beta/Initializer/zeros"
  op: "Const"
  attr {
    key: "_class"
    value {
      list {
        s: "loc:@ConvOnlyResNet/block-2/mid-bn/beta"
      }
    }
  }
  attr {
    key: "dtype"
    value {
      type: DT_FLOAT
    }
  }
  attr {
    key: "value"
    value {
      tensor {
        dtype: DT_FLOAT
        tensor_shape {
          dim {
            size: 16
          }
        }
        float_val: 0.0
      }
    }
  }
}
node {
  name: "ConvOnlyResNet/block-2/mid-bn/beta"
  op: "VariableV2"
  attr {
    key: "_class"
    value {
      list {
        s: "loc:@ConvOnlyResNet/block-2/mid-bn/beta"
      }
    }
  }
  attr {
    key: "container"
    value {
      s: ""
    }
  }
  attr {
    key: "dtype"
    value {
      type: DT_FLOAT
    }
  }
  attr {
    key: "shape"
    value {
      shape {
        dim {
          size: 16
        }
      }
    }
  }
  attr {
    key: "shared_name"
    value {
      s: ""
    }
  }
}
node {
  name: "ConvOnlyResNet/block-2/mid-bn/beta/Assign"
  op: "Assign"
  input: "ConvOnlyResNet/block-2/mid-bn/beta"
  input: "ConvOnlyResNet/block-2/mid-bn/beta/Initializer/zeros"
  attr {
    key: "T"
    value {
      type: DT_FLOAT
    }
  }
  attr {
    key: "_class"
    value {
      list {
        s: "loc:@ConvOnlyResNet/block-2/mid-bn/beta"
      }
    }
  }
  attr {
    key: "use_locking"
    value {
      b: true
    }
  }
  attr {
    key: "validate_shape"
    value {
      b: true
    }
  }
}
node {
  name: "ConvOnlyResNet/block-2/mid-bn/beta/read"
  op: "Identity"
  input: "ConvOnlyResNet/block-2/mid-bn/beta"
  attr {
    key: "T"
    value {
      type: DT_FLOAT
    }
  }
  attr {
    key: "_class"
    value {
      list {
        s: "loc:@ConvOnlyResNet/block-2/mid-bn/beta"
      }
    }
  }
}
node {
  name: "ConvOnlyResNet/block-2/mid-bn/moving_mean/Initializer/zeros"
  op: "Const"
  attr {
    key: "_class"
    value {
      list {
        s: "loc:@ConvOnlyResNet/block-2/mid-bn/moving_mean"
      }
    }
  }
  attr {
    key: "dtype"
    value {
      type: DT_FLOAT
    }
  }
  attr {
    key: "value"
    value {
      tensor {
        dtype: DT_FLOAT
        tensor_shape {
          dim {
            size: 16
          }
        }
        float_val: 0.0
      }
    }
  }
}
node {
  name: "ConvOnlyResNet/block-2/mid-bn/moving_mean"
  op: "VariableV2"
  attr {
    key: "_class"
    value {
      list {
        s: "loc:@ConvOnlyResNet/block-2/mid-bn/moving_mean"
      }
    }
  }
  attr {
    key: "container"
    value {
      s: ""
    }
  }
  attr {
    key: "dtype"
    value {
      type: DT_FLOAT
    }
  }
  attr {
    key: "shape"
    value {
      shape {
        dim {
          size: 16
        }
      }
    }
  }
  attr {
    key: "shared_name"
    value {
      s: ""
    }
  }
}
node {
  name: "ConvOnlyResNet/block-2/mid-bn/moving_mean/Assign"
  op: "Assign"
  input: "ConvOnlyResNet/block-2/mid-bn/moving_mean"
  input: "ConvOnlyResNet/block-2/mid-bn/moving_mean/Initializer/zeros"
  attr {
    key: "T"
    value {
      type: DT_FLOAT
    }
  }
  attr {
    key: "_class"
    value {
      list {
        s: "loc:@ConvOnlyResNet/block-2/mid-bn/moving_mean"
      }
    }
  }
  attr {
    key: "use_locking"
    value {
      b: true
    }
  }
  attr {
    key: "validate_shape"
    value {
      b: true
    }
  }
}
node {
  name: "ConvOnlyResNet/block-2/mid-bn/moving_mean/read"
  op: "Identity"
  input: "ConvOnlyResNet/block-2/mid-bn/moving_mean"
  attr {
    key: "T"
    value {
      type: DT_FLOAT
    }
  }
  attr {
    key: "_class"
    value {
      list {
        s: "loc:@ConvOnlyResNet/block-2/mid-bn/moving_mean"
      }
    }
  }
}
node {
  name: "ConvOnlyResNet/block-2/mid-bn/moving_variance/Initializer/ones"
  op: "Const"
  attr {
    key: "_class"
    value {
      list {
        s: "loc:@ConvOnlyResNet/block-2/mid-bn/moving_variance"
      }
    }
  }
  attr {
    key: "dtype"
    value {
      type: DT_FLOAT
    }
  }
  attr {
    key: "value"
    value {
      tensor {
        dtype: DT_FLOAT
        tensor_shape {
          dim {
            size: 16
          }
        }
        float_val: 1.0
      }
    }
  }
}
node {
  name: "ConvOnlyResNet/block-2/mid-bn/moving_variance"
  op: "VariableV2"
  attr {
    key: "_class"
    value {
      list {
        s: "loc:@ConvOnlyResNet/block-2/mid-bn/moving_variance"
      }
    }
  }
  attr {
    key: "container"
    value {
      s: ""
    }
  }
  attr {
    key: "dtype"
    value {
      type: DT_FLOAT
    }
  }
  attr {
    key: "shape"
    value {
      shape {
        dim {
          size: 16
        }
      }
    }
  }
  attr {
    key: "shared_name"
    value {
      s: ""
    }
  }
}
node {
  name: "ConvOnlyResNet/block-2/mid-bn/moving_variance/Assign"
  op: "Assign"
  input: "ConvOnlyResNet/block-2/mid-bn/moving_variance"
  input: "ConvOnlyResNet/block-2/mid-bn/moving_variance/Initializer/ones"
  attr {
    key: "T"
    value {
      type: DT_FLOAT
    }
  }
  attr {
    key: "_class"
    value {
      list {
        s: "loc:@ConvOnlyResNet/block-2/mid-bn/moving_variance"
      }
    }
  }
  attr {
    key: "use_locking"
    value {
      b: true
    }
  }
  attr {
    key: "validate_shape"
    value {
      b: true
    }
  }
}
node {
  name: "ConvOnlyResNet/block-2/mid-bn/moving_variance/read"
  op: "Identity"
  input: "ConvOnlyResNet/block-2/mid-bn/moving_variance"
  attr {
    key: "T"
    value {
      type: DT_FLOAT
    }
  }
  attr {
    key: "_class"
    value {
      list {
        s: "loc:@ConvOnlyResNet/block-2/mid-bn/moving_variance"
      }
    }
  }
}
node {
  name: "MSDeepDet/ConvOnlyResNet/block-2/mid-bn/FusedBatchNorm"
  op: "FusedBatchNorm"
  input: "MSDeepDet/ConvOnlyResNet/block-2/conv1/BiasAdd"
  input: "ConvOnlyResNet/block-2/mid-bn/gamma/read"
  input: "ConvOnlyResNet/block-2/mid-bn/beta/read"
  input: "ConvOnlyResNet/block-2/mid-bn/moving_mean/read"
  input: "ConvOnlyResNet/block-2/mid-bn/moving_variance/read"
  attr {
    key: "T"
    value {
      type: DT_FLOAT
    }
  }
  attr {
    key: "data_format"
    value {
      s: "NHWC"
    }
  }
  attr {
    key: "epsilon"
    value {
      f: 1.0009999641624745e-05
    }
  }
  attr {
    key: "is_training"
    value {
      b: false
    }
  }
}
node {
  name: "MSDeepDet/ConvOnlyResNet/block-2/mid-bn/Const"
  op: "Const"
  attr {
    key: "dtype"
    value {
      type: DT_FLOAT
    }
  }
  attr {
    key: "value"
    value {
      tensor {
        dtype: DT_FLOAT
        tensor_shape {
        }
        float_val: 0.8999999761581421
      }
    }
  }
}
node {
  name: "MSDeepDet/ConvOnlyResNet/block-2/LeakyRelu_1/alpha"
  op: "Const"
  attr {
    key: "dtype"
    value {
      type: DT_FLOAT
    }
  }
  attr {
    key: "value"
    value {
      tensor {
        dtype: DT_FLOAT
        tensor_shape {
        }
        float_val: 0.20000000298023224
      }
    }
  }
}
node {
  name: "MSDeepDet/ConvOnlyResNet/block-2/LeakyRelu_1/mul"
  op: "Mul"
  input: "MSDeepDet/ConvOnlyResNet/block-2/LeakyRelu_1/alpha"
  input: "MSDeepDet/ConvOnlyResNet/block-2/mid-bn/FusedBatchNorm"
  attr {
    key: "T"
    value {
      type: DT_FLOAT
    }
  }
}
node {
  name: "MSDeepDet/ConvOnlyResNet/block-2/LeakyRelu_1/Maximum"
  op: "Maximum"
  input: "MSDeepDet/ConvOnlyResNet/block-2/LeakyRelu_1/mul"
  input: "MSDeepDet/ConvOnlyResNet/block-2/mid-bn/FusedBatchNorm"
  attr {
    key: "T"
    value {
      type: DT_FLOAT
    }
  }
}
node {
  name: "ConvOnlyResNet/block-2/conv2/weights/Initializer/random_uniform/shape"
  op: "Const"
  attr {
    key: "_class"
    value {
      list {
        s: "loc:@ConvOnlyResNet/block-2/conv2/weights"
      }
    }
  }
  attr {
    key: "dtype"
    value {
      type: DT_INT32
    }
  }
  attr {
    key: "value"
    value {
      tensor {
        dtype: DT_INT32
        tensor_shape {
          dim {
            size: 4
          }
        }
        tensor_content: "\005\000\000\000\005\000\000\000\020\000\000\000\020\000\000\000"
      }
    }
  }
}
node {
  name: "ConvOnlyResNet/block-2/conv2/weights/Initializer/random_uniform/min"
  op: "Const"
  attr {
    key: "_class"
    value {
      list {
        s: "loc:@ConvOnlyResNet/block-2/conv2/weights"
      }
    }
  }
  attr {
    key: "dtype"
    value {
      type: DT_FLOAT
    }
  }
  attr {
    key: "value"
    value {
      tensor {
        dtype: DT_FLOAT
        tensor_shape {
        }
        float_val: -0.08660253882408142
      }
    }
  }
}
node {
  name: "ConvOnlyResNet/block-2/conv2/weights/Initializer/random_uniform/max"
  op: "Const"
  attr {
    key: "_class"
    value {
      list {
        s: "loc:@ConvOnlyResNet/block-2/conv2/weights"
      }
    }
  }
  attr {
    key: "dtype"
    value {
      type: DT_FLOAT
    }
  }
  attr {
    key: "value"
    value {
      tensor {
        dtype: DT_FLOAT
        tensor_shape {
        }
        float_val: 0.08660253882408142
      }
    }
  }
}
node {
  name: "ConvOnlyResNet/block-2/conv2/weights/Initializer/random_uniform/RandomUniform"
  op: "RandomUniform"
  input: "ConvOnlyResNet/block-2/conv2/weights/Initializer/random_uniform/shape"
  attr {
    key: "T"
    value {
      type: DT_INT32
    }
  }
  attr {
    key: "_class"
    value {
      list {
        s: "loc:@ConvOnlyResNet/block-2/conv2/weights"
      }
    }
  }
  attr {
    key: "dtype"
    value {
      type: DT_FLOAT
    }
  }
  attr {
    key: "seed"
    value {
      i: 0
    }
  }
  attr {
    key: "seed2"
    value {
      i: 0
    }
  }
}
node {
  name: "ConvOnlyResNet/block-2/conv2/weights/Initializer/random_uniform/sub"
  op: "Sub"
  input: "ConvOnlyResNet/block-2/conv2/weights/Initializer/random_uniform/max"
  input: "ConvOnlyResNet/block-2/conv2/weights/Initializer/random_uniform/min"
  attr {
    key: "T"
    value {
      type: DT_FLOAT
    }
  }
  attr {
    key: "_class"
    value {
      list {
        s: "loc:@ConvOnlyResNet/block-2/conv2/weights"
      }
    }
  }
}
node {
  name: "ConvOnlyResNet/block-2/conv2/weights/Initializer/random_uniform/mul"
  op: "Mul"
  input: "ConvOnlyResNet/block-2/conv2/weights/Initializer/random_uniform/RandomUniform"
  input: "ConvOnlyResNet/block-2/conv2/weights/Initializer/random_uniform/sub"
  attr {
    key: "T"
    value {
      type: DT_FLOAT
    }
  }
  attr {
    key: "_class"
    value {
      list {
        s: "loc:@ConvOnlyResNet/block-2/conv2/weights"
      }
    }
  }
}
node {
  name: "ConvOnlyResNet/block-2/conv2/weights/Initializer/random_uniform"
  op: "Add"
  input: "ConvOnlyResNet/block-2/conv2/weights/Initializer/random_uniform/mul"
  input: "ConvOnlyResNet/block-2/conv2/weights/Initializer/random_uniform/min"
  attr {
    key: "T"
    value {
      type: DT_FLOAT
    }
  }
  attr {
    key: "_class"
    value {
      list {
        s: "loc:@ConvOnlyResNet/block-2/conv2/weights"
      }
    }
  }
}
node {
  name: "ConvOnlyResNet/block-2/conv2/weights"
  op: "VariableV2"
  attr {
    key: "_class"
    value {
      list {
        s: "loc:@ConvOnlyResNet/block-2/conv2/weights"
      }
    }
  }
  attr {
    key: "container"
    value {
      s: ""
    }
  }
  attr {
    key: "dtype"
    value {
      type: DT_FLOAT
    }
  }
  attr {
    key: "shape"
    value {
      shape {
        dim {
          size: 5
        }
        dim {
          size: 5
        }
        dim {
          size: 16
        }
        dim {
          size: 16
        }
      }
    }
  }
  attr {
    key: "shared_name"
    value {
      s: ""
    }
  }
}
node {
  name: "ConvOnlyResNet/block-2/conv2/weights/Assign"
  op: "Assign"
  input: "ConvOnlyResNet/block-2/conv2/weights"
  input: "ConvOnlyResNet/block-2/conv2/weights/Initializer/random_uniform"
  attr {
    key: "T"
    value {
      type: DT_FLOAT
    }
  }
  attr {
    key: "_class"
    value {
      list {
        s: "loc:@ConvOnlyResNet/block-2/conv2/weights"
      }
    }
  }
  attr {
    key: "use_locking"
    value {
      b: true
    }
  }
  attr {
    key: "validate_shape"
    value {
      b: true
    }
  }
}
node {
  name: "ConvOnlyResNet/block-2/conv2/weights/read"
  op: "Identity"
  input: "ConvOnlyResNet/block-2/conv2/weights"
  attr {
    key: "T"
    value {
      type: DT_FLOAT
    }
  }
  attr {
    key: "_class"
    value {
      list {
        s: "loc:@ConvOnlyResNet/block-2/conv2/weights"
      }
    }
  }
}
node {
  name: "ConvOnlyResNet/block-2/conv2/biases/Initializer/zeros"
  op: "Const"
  attr {
    key: "_class"
    value {
      list {
        s: "loc:@ConvOnlyResNet/block-2/conv2/biases"
      }
    }
  }
  attr {
    key: "dtype"
    value {
      type: DT_FLOAT
    }
  }
  attr {
    key: "value"
    value {
      tensor {
        dtype: DT_FLOAT
        tensor_shape {
          dim {
            size: 16
          }
        }
        float_val: 0.0
      }
    }
  }
}
node {
  name: "ConvOnlyResNet/block-2/conv2/biases"
  op: "VariableV2"
  attr {
    key: "_class"
    value {
      list {
        s: "loc:@ConvOnlyResNet/block-2/conv2/biases"
      }
    }
  }
  attr {
    key: "container"
    value {
      s: ""
    }
  }
  attr {
    key: "dtype"
    value {
      type: DT_FLOAT
    }
  }
  attr {
    key: "shape"
    value {
      shape {
        dim {
          size: 16
        }
      }
    }
  }
  attr {
    key: "shared_name"
    value {
      s: ""
    }
  }
}
node {
  name: "ConvOnlyResNet/block-2/conv2/biases/Assign"
  op: "Assign"
  input: "ConvOnlyResNet/block-2/conv2/biases"
  input: "ConvOnlyResNet/block-2/conv2/biases/Initializer/zeros"
  attr {
    key: "T"
    value {
      type: DT_FLOAT
    }
  }
  attr {
    key: "_class"
    value {
      list {
        s: "loc:@ConvOnlyResNet/block-2/conv2/biases"
      }
    }
  }
  attr {
    key: "use_locking"
    value {
      b: true
    }
  }
  attr {
    key: "validate_shape"
    value {
      b: true
    }
  }
}
node {
  name: "ConvOnlyResNet/block-2/conv2/biases/read"
  op: "Identity"
  input: "ConvOnlyResNet/block-2/conv2/biases"
  attr {
    key: "T"
    value {
      type: DT_FLOAT
    }
  }
  attr {
    key: "_class"
    value {
      list {
        s: "loc:@ConvOnlyResNet/block-2/conv2/biases"
      }
    }
  }
}
node {
  name: "MSDeepDet/ConvOnlyResNet/block-2/conv2/weights/tag"
  op: "Const"
  attr {
    key: "dtype"
    value {
      type: DT_STRING
    }
  }
  attr {
    key: "value"
    value {
      tensor {
        dtype: DT_STRING
        tensor_shape {
        }
        string_val: "MSDeepDet/ConvOnlyResNet/block-2/conv2/weights"
      }
    }
  }
}
node {
  name: "MSDeepDet/ConvOnlyResNet/block-2/conv2/weights"
  op: "HistogramSummary"
  input: "MSDeepDet/ConvOnlyResNet/block-2/conv2/weights/tag"
  input: "ConvOnlyResNet/block-2/conv2/weights/read"
  attr {
    key: "T"
    value {
      type: DT_FLOAT
    }
  }
}
node {
  name: "MSDeepDet/ConvOnlyResNet/block-2/conv2/biases/tag"
  op: "Const"
  attr {
    key: "dtype"
    value {
      type: DT_STRING
    }
  }
  attr {
    key: "value"
    value {
      tensor {
        dtype: DT_STRING
        tensor_shape {
        }
        string_val: "MSDeepDet/ConvOnlyResNet/block-2/conv2/biases"
      }
    }
  }
}
node {
  name: "MSDeepDet/ConvOnlyResNet/block-2/conv2/biases"
  op: "HistogramSummary"
  input: "MSDeepDet/ConvOnlyResNet/block-2/conv2/biases/tag"
  input: "ConvOnlyResNet/block-2/conv2/biases/read"
  attr {
    key: "T"
    value {
      type: DT_FLOAT
    }
  }
}
node {
  name: "MSDeepDet/ConvOnlyResNet/block-2/conv2/Conv2D"
  op: "Conv2D"
  input: "MSDeepDet/ConvOnlyResNet/block-2/LeakyRelu_1/Maximum"
  input: "ConvOnlyResNet/block-2/conv2/weights/read"
  attr {
    key: "T"
    value {
      type: DT_FLOAT
    }
  }
  attr {
    key: "data_format"
    value {
      s: "NHWC"
    }
  }
  attr {
    key: "dilations"
    value {
      list {
        i: 1
        i: 1
        i: 1
        i: 1
      }
    }
  }
  attr {
    key: "padding"
    value {
      s: "SAME"
    }
  }
  attr {
    key: "strides"
    value {
      list {
        i: 1
        i: 1
        i: 1
        i: 1
      }
    }
  }
  attr {
    key: "use_cudnn_on_gpu"
    value {
      b: true
    }
  }
}
node {
  name: "MSDeepDet/ConvOnlyResNet/block-2/conv2/BiasAdd"
  op: "BiasAdd"
  input: "MSDeepDet/ConvOnlyResNet/block-2/conv2/Conv2D"
  input: "ConvOnlyResNet/block-2/conv2/biases/read"
  attr {
    key: "T"
    value {
      type: DT_FLOAT
    }
  }
  attr {
    key: "data_format"
    value {
      s: "NHWC"
    }
  }
}
node {
  name: "MSDeepDet/ConvOnlyResNet/block-2/add"
  op: "Add"
  input: "MSDeepDet/ConvOnlyResNet/block-2/conv2/BiasAdd"
  input: "MSDeepDet/ConvOnlyResNet/block-1/add"
  attr {
    key: "T"
    value {
      type: DT_FLOAT
    }
  }
}
node {
  name: "ConvOnlyResNet/block-3/pre-bn/gamma/Initializer/ones"
  op: "Const"
  attr {
    key: "_class"
    value {
      list {
        s: "loc:@ConvOnlyResNet/block-3/pre-bn/gamma"
      }
    }
  }
  attr {
    key: "dtype"
    value {
      type: DT_FLOAT
    }
  }
  attr {
    key: "value"
    value {
      tensor {
        dtype: DT_FLOAT
        tensor_shape {
          dim {
            size: 16
          }
        }
        float_val: 1.0
      }
    }
  }
}
node {
  name: "ConvOnlyResNet/block-3/pre-bn/gamma"
  op: "VariableV2"
  attr {
    key: "_class"
    value {
      list {
        s: "loc:@ConvOnlyResNet/block-3/pre-bn/gamma"
      }
    }
  }
  attr {
    key: "container"
    value {
      s: ""
    }
  }
  attr {
    key: "dtype"
    value {
      type: DT_FLOAT
    }
  }
  attr {
    key: "shape"
    value {
      shape {
        dim {
          size: 16
        }
      }
    }
  }
  attr {
    key: "shared_name"
    value {
      s: ""
    }
  }
}
node {
  name: "ConvOnlyResNet/block-3/pre-bn/gamma/Assign"
  op: "Assign"
  input: "ConvOnlyResNet/block-3/pre-bn/gamma"
  input: "ConvOnlyResNet/block-3/pre-bn/gamma/Initializer/ones"
  attr {
    key: "T"
    value {
      type: DT_FLOAT
    }
  }
  attr {
    key: "_class"
    value {
      list {
        s: "loc:@ConvOnlyResNet/block-3/pre-bn/gamma"
      }
    }
  }
  attr {
    key: "use_locking"
    value {
      b: true
    }
  }
  attr {
    key: "validate_shape"
    value {
      b: true
    }
  }
}
node {
  name: "ConvOnlyResNet/block-3/pre-bn/gamma/read"
  op: "Identity"
  input: "ConvOnlyResNet/block-3/pre-bn/gamma"
  attr {
    key: "T"
    value {
      type: DT_FLOAT
    }
  }
  attr {
    key: "_class"
    value {
      list {
        s: "loc:@ConvOnlyResNet/block-3/pre-bn/gamma"
      }
    }
  }
}
node {
  name: "ConvOnlyResNet/block-3/pre-bn/beta/Initializer/zeros"
  op: "Const"
  attr {
    key: "_class"
    value {
      list {
        s: "loc:@ConvOnlyResNet/block-3/pre-bn/beta"
      }
    }
  }
  attr {
    key: "dtype"
    value {
      type: DT_FLOAT
    }
  }
  attr {
    key: "value"
    value {
      tensor {
        dtype: DT_FLOAT
        tensor_shape {
          dim {
            size: 16
          }
        }
        float_val: 0.0
      }
    }
  }
}
node {
  name: "ConvOnlyResNet/block-3/pre-bn/beta"
  op: "VariableV2"
  attr {
    key: "_class"
    value {
      list {
        s: "loc:@ConvOnlyResNet/block-3/pre-bn/beta"
      }
    }
  }
  attr {
    key: "container"
    value {
      s: ""
    }
  }
  attr {
    key: "dtype"
    value {
      type: DT_FLOAT
    }
  }
  attr {
    key: "shape"
    value {
      shape {
        dim {
          size: 16
        }
      }
    }
  }
  attr {
    key: "shared_name"
    value {
      s: ""
    }
  }
}
node {
  name: "ConvOnlyResNet/block-3/pre-bn/beta/Assign"
  op: "Assign"
  input: "ConvOnlyResNet/block-3/pre-bn/beta"
  input: "ConvOnlyResNet/block-3/pre-bn/beta/Initializer/zeros"
  attr {
    key: "T"
    value {
      type: DT_FLOAT
    }
  }
  attr {
    key: "_class"
    value {
      list {
        s: "loc:@ConvOnlyResNet/block-3/pre-bn/beta"
      }
    }
  }
  attr {
    key: "use_locking"
    value {
      b: true
    }
  }
  attr {
    key: "validate_shape"
    value {
      b: true
    }
  }
}
node {
  name: "ConvOnlyResNet/block-3/pre-bn/beta/read"
  op: "Identity"
  input: "ConvOnlyResNet/block-3/pre-bn/beta"
  attr {
    key: "T"
    value {
      type: DT_FLOAT
    }
  }
  attr {
    key: "_class"
    value {
      list {
        s: "loc:@ConvOnlyResNet/block-3/pre-bn/beta"
      }
    }
  }
}
node {
  name: "ConvOnlyResNet/block-3/pre-bn/moving_mean/Initializer/zeros"
  op: "Const"
  attr {
    key: "_class"
    value {
      list {
        s: "loc:@ConvOnlyResNet/block-3/pre-bn/moving_mean"
      }
    }
  }
  attr {
    key: "dtype"
    value {
      type: DT_FLOAT
    }
  }
  attr {
    key: "value"
    value {
      tensor {
        dtype: DT_FLOAT
        tensor_shape {
          dim {
            size: 16
          }
        }
        float_val: 0.0
      }
    }
  }
}
node {
  name: "ConvOnlyResNet/block-3/pre-bn/moving_mean"
  op: "VariableV2"
  attr {
    key: "_class"
    value {
      list {
        s: "loc:@ConvOnlyResNet/block-3/pre-bn/moving_mean"
      }
    }
  }
  attr {
    key: "container"
    value {
      s: ""
    }
  }
  attr {
    key: "dtype"
    value {
      type: DT_FLOAT
    }
  }
  attr {
    key: "shape"
    value {
      shape {
        dim {
          size: 16
        }
      }
    }
  }
  attr {
    key: "shared_name"
    value {
      s: ""
    }
  }
}
node {
  name: "ConvOnlyResNet/block-3/pre-bn/moving_mean/Assign"
  op: "Assign"
  input: "ConvOnlyResNet/block-3/pre-bn/moving_mean"
  input: "ConvOnlyResNet/block-3/pre-bn/moving_mean/Initializer/zeros"
  attr {
    key: "T"
    value {
      type: DT_FLOAT
    }
  }
  attr {
    key: "_class"
    value {
      list {
        s: "loc:@ConvOnlyResNet/block-3/pre-bn/moving_mean"
      }
    }
  }
  attr {
    key: "use_locking"
    value {
      b: true
    }
  }
  attr {
    key: "validate_shape"
    value {
      b: true
    }
  }
}
node {
  name: "ConvOnlyResNet/block-3/pre-bn/moving_mean/read"
  op: "Identity"
  input: "ConvOnlyResNet/block-3/pre-bn/moving_mean"
  attr {
    key: "T"
    value {
      type: DT_FLOAT
    }
  }
  attr {
    key: "_class"
    value {
      list {
        s: "loc:@ConvOnlyResNet/block-3/pre-bn/moving_mean"
      }
    }
  }
}
node {
  name: "ConvOnlyResNet/block-3/pre-bn/moving_variance/Initializer/ones"
  op: "Const"
  attr {
    key: "_class"
    value {
      list {
        s: "loc:@ConvOnlyResNet/block-3/pre-bn/moving_variance"
      }
    }
  }
  attr {
    key: "dtype"
    value {
      type: DT_FLOAT
    }
  }
  attr {
    key: "value"
    value {
      tensor {
        dtype: DT_FLOAT
        tensor_shape {
          dim {
            size: 16
          }
        }
        float_val: 1.0
      }
    }
  }
}
node {
  name: "ConvOnlyResNet/block-3/pre-bn/moving_variance"
  op: "VariableV2"
  attr {
    key: "_class"
    value {
      list {
        s: "loc:@ConvOnlyResNet/block-3/pre-bn/moving_variance"
      }
    }
  }
  attr {
    key: "container"
    value {
      s: ""
    }
  }
  attr {
    key: "dtype"
    value {
      type: DT_FLOAT
    }
  }
  attr {
    key: "shape"
    value {
      shape {
        dim {
          size: 16
        }
      }
    }
  }
  attr {
    key: "shared_name"
    value {
      s: ""
    }
  }
}
node {
  name: "ConvOnlyResNet/block-3/pre-bn/moving_variance/Assign"
  op: "Assign"
  input: "ConvOnlyResNet/block-3/pre-bn/moving_variance"
  input: "ConvOnlyResNet/block-3/pre-bn/moving_variance/Initializer/ones"
  attr {
    key: "T"
    value {
      type: DT_FLOAT
    }
  }
  attr {
    key: "_class"
    value {
      list {
        s: "loc:@ConvOnlyResNet/block-3/pre-bn/moving_variance"
      }
    }
  }
  attr {
    key: "use_locking"
    value {
      b: true
    }
  }
  attr {
    key: "validate_shape"
    value {
      b: true
    }
  }
}
node {
  name: "ConvOnlyResNet/block-3/pre-bn/moving_variance/read"
  op: "Identity"
  input: "ConvOnlyResNet/block-3/pre-bn/moving_variance"
  attr {
    key: "T"
    value {
      type: DT_FLOAT
    }
  }
  attr {
    key: "_class"
    value {
      list {
        s: "loc:@ConvOnlyResNet/block-3/pre-bn/moving_variance"
      }
    }
  }
}
node {
  name: "MSDeepDet/ConvOnlyResNet/block-3/pre-bn/FusedBatchNorm"
  op: "FusedBatchNorm"
  input: "MSDeepDet/ConvOnlyResNet/block-2/add"
  input: "ConvOnlyResNet/block-3/pre-bn/gamma/read"
  input: "ConvOnlyResNet/block-3/pre-bn/beta/read"
  input: "ConvOnlyResNet/block-3/pre-bn/moving_mean/read"
  input: "ConvOnlyResNet/block-3/pre-bn/moving_variance/read"
  attr {
    key: "T"
    value {
      type: DT_FLOAT
    }
  }
  attr {
    key: "data_format"
    value {
      s: "NHWC"
    }
  }
  attr {
    key: "epsilon"
    value {
      f: 1.0009999641624745e-05
    }
  }
  attr {
    key: "is_training"
    value {
      b: false
    }
  }
}
node {
  name: "MSDeepDet/ConvOnlyResNet/block-3/pre-bn/Const"
  op: "Const"
  attr {
    key: "dtype"
    value {
      type: DT_FLOAT
    }
  }
  attr {
    key: "value"
    value {
      tensor {
        dtype: DT_FLOAT
        tensor_shape {
        }
        float_val: 0.8999999761581421
      }
    }
  }
}
node {
  name: "MSDeepDet/ConvOnlyResNet/block-3/LeakyRelu/alpha"
  op: "Const"
  attr {
    key: "dtype"
    value {
      type: DT_FLOAT
    }
  }
  attr {
    key: "value"
    value {
      tensor {
        dtype: DT_FLOAT
        tensor_shape {
        }
        float_val: 0.20000000298023224
      }
    }
  }
}
node {
  name: "MSDeepDet/ConvOnlyResNet/block-3/LeakyRelu/mul"
  op: "Mul"
  input: "MSDeepDet/ConvOnlyResNet/block-3/LeakyRelu/alpha"
  input: "MSDeepDet/ConvOnlyResNet/block-3/pre-bn/FusedBatchNorm"
  attr {
    key: "T"
    value {
      type: DT_FLOAT
    }
  }
}
node {
  name: "MSDeepDet/ConvOnlyResNet/block-3/LeakyRelu/Maximum"
  op: "Maximum"
  input: "MSDeepDet/ConvOnlyResNet/block-3/LeakyRelu/mul"
  input: "MSDeepDet/ConvOnlyResNet/block-3/pre-bn/FusedBatchNorm"
  attr {
    key: "T"
    value {
      type: DT_FLOAT
    }
  }
}
node {
  name: "ConvOnlyResNet/block-3/conv1/weights/Initializer/random_uniform/shape"
  op: "Const"
  attr {
    key: "_class"
    value {
      list {
        s: "loc:@ConvOnlyResNet/block-3/conv1/weights"
      }
    }
  }
  attr {
    key: "dtype"
    value {
      type: DT_INT32
    }
  }
  attr {
    key: "value"
    value {
      tensor {
        dtype: DT_INT32
        tensor_shape {
          dim {
            size: 4
          }
        }
        tensor_content: "\005\000\000\000\005\000\000\000\020\000\000\000\020\000\000\000"
      }
    }
  }
}
node {
  name: "ConvOnlyResNet/block-3/conv1/weights/Initializer/random_uniform/min"
  op: "Const"
  attr {
    key: "_class"
    value {
      list {
        s: "loc:@ConvOnlyResNet/block-3/conv1/weights"
      }
    }
  }
  attr {
    key: "dtype"
    value {
      type: DT_FLOAT
    }
  }
  attr {
    key: "value"
    value {
      tensor {
        dtype: DT_FLOAT
        tensor_shape {
        }
        float_val: -0.08660253882408142
      }
    }
  }
}
node {
  name: "ConvOnlyResNet/block-3/conv1/weights/Initializer/random_uniform/max"
  op: "Const"
  attr {
    key: "_class"
    value {
      list {
        s: "loc:@ConvOnlyResNet/block-3/conv1/weights"
      }
    }
  }
  attr {
    key: "dtype"
    value {
      type: DT_FLOAT
    }
  }
  attr {
    key: "value"
    value {
      tensor {
        dtype: DT_FLOAT
        tensor_shape {
        }
        float_val: 0.08660253882408142
      }
    }
  }
}
node {
  name: "ConvOnlyResNet/block-3/conv1/weights/Initializer/random_uniform/RandomUniform"
  op: "RandomUniform"
  input: "ConvOnlyResNet/block-3/conv1/weights/Initializer/random_uniform/shape"
  attr {
    key: "T"
    value {
      type: DT_INT32
    }
  }
  attr {
    key: "_class"
    value {
      list {
        s: "loc:@ConvOnlyResNet/block-3/conv1/weights"
      }
    }
  }
  attr {
    key: "dtype"
    value {
      type: DT_FLOAT
    }
  }
  attr {
    key: "seed"
    value {
      i: 0
    }
  }
  attr {
    key: "seed2"
    value {
      i: 0
    }
  }
}
node {
  name: "ConvOnlyResNet/block-3/conv1/weights/Initializer/random_uniform/sub"
  op: "Sub"
  input: "ConvOnlyResNet/block-3/conv1/weights/Initializer/random_uniform/max"
  input: "ConvOnlyResNet/block-3/conv1/weights/Initializer/random_uniform/min"
  attr {
    key: "T"
    value {
      type: DT_FLOAT
    }
  }
  attr {
    key: "_class"
    value {
      list {
        s: "loc:@ConvOnlyResNet/block-3/conv1/weights"
      }
    }
  }
}
node {
  name: "ConvOnlyResNet/block-3/conv1/weights/Initializer/random_uniform/mul"
  op: "Mul"
  input: "ConvOnlyResNet/block-3/conv1/weights/Initializer/random_uniform/RandomUniform"
  input: "ConvOnlyResNet/block-3/conv1/weights/Initializer/random_uniform/sub"
  attr {
    key: "T"
    value {
      type: DT_FLOAT
    }
  }
  attr {
    key: "_class"
    value {
      list {
        s: "loc:@ConvOnlyResNet/block-3/conv1/weights"
      }
    }
  }
}
node {
  name: "ConvOnlyResNet/block-3/conv1/weights/Initializer/random_uniform"
  op: "Add"
  input: "ConvOnlyResNet/block-3/conv1/weights/Initializer/random_uniform/mul"
  input: "ConvOnlyResNet/block-3/conv1/weights/Initializer/random_uniform/min"
  attr {
    key: "T"
    value {
      type: DT_FLOAT
    }
  }
  attr {
    key: "_class"
    value {
      list {
        s: "loc:@ConvOnlyResNet/block-3/conv1/weights"
      }
    }
  }
}
node {
  name: "ConvOnlyResNet/block-3/conv1/weights"
  op: "VariableV2"
  attr {
    key: "_class"
    value {
      list {
        s: "loc:@ConvOnlyResNet/block-3/conv1/weights"
      }
    }
  }
  attr {
    key: "container"
    value {
      s: ""
    }
  }
  attr {
    key: "dtype"
    value {
      type: DT_FLOAT
    }
  }
  attr {
    key: "shape"
    value {
      shape {
        dim {
          size: 5
        }
        dim {
          size: 5
        }
        dim {
          size: 16
        }
        dim {
          size: 16
        }
      }
    }
  }
  attr {
    key: "shared_name"
    value {
      s: ""
    }
  }
}
node {
  name: "ConvOnlyResNet/block-3/conv1/weights/Assign"
  op: "Assign"
  input: "ConvOnlyResNet/block-3/conv1/weights"
  input: "ConvOnlyResNet/block-3/conv1/weights/Initializer/random_uniform"
  attr {
    key: "T"
    value {
      type: DT_FLOAT
    }
  }
  attr {
    key: "_class"
    value {
      list {
        s: "loc:@ConvOnlyResNet/block-3/conv1/weights"
      }
    }
  }
  attr {
    key: "use_locking"
    value {
      b: true
    }
  }
  attr {
    key: "validate_shape"
    value {
      b: true
    }
  }
}
node {
  name: "ConvOnlyResNet/block-3/conv1/weights/read"
  op: "Identity"
  input: "ConvOnlyResNet/block-3/conv1/weights"
  attr {
    key: "T"
    value {
      type: DT_FLOAT
    }
  }
  attr {
    key: "_class"
    value {
      list {
        s: "loc:@ConvOnlyResNet/block-3/conv1/weights"
      }
    }
  }
}
node {
  name: "ConvOnlyResNet/block-3/conv1/biases/Initializer/zeros"
  op: "Const"
  attr {
    key: "_class"
    value {
      list {
        s: "loc:@ConvOnlyResNet/block-3/conv1/biases"
      }
    }
  }
  attr {
    key: "dtype"
    value {
      type: DT_FLOAT
    }
  }
  attr {
    key: "value"
    value {
      tensor {
        dtype: DT_FLOAT
        tensor_shape {
          dim {
            size: 16
          }
        }
        float_val: 0.0
      }
    }
  }
}
node {
  name: "ConvOnlyResNet/block-3/conv1/biases"
  op: "VariableV2"
  attr {
    key: "_class"
    value {
      list {
        s: "loc:@ConvOnlyResNet/block-3/conv1/biases"
      }
    }
  }
  attr {
    key: "container"
    value {
      s: ""
    }
  }
  attr {
    key: "dtype"
    value {
      type: DT_FLOAT
    }
  }
  attr {
    key: "shape"
    value {
      shape {
        dim {
          size: 16
        }
      }
    }
  }
  attr {
    key: "shared_name"
    value {
      s: ""
    }
  }
}
node {
  name: "ConvOnlyResNet/block-3/conv1/biases/Assign"
  op: "Assign"
  input: "ConvOnlyResNet/block-3/conv1/biases"
  input: "ConvOnlyResNet/block-3/conv1/biases/Initializer/zeros"
  attr {
    key: "T"
    value {
      type: DT_FLOAT
    }
  }
  attr {
    key: "_class"
    value {
      list {
        s: "loc:@ConvOnlyResNet/block-3/conv1/biases"
      }
    }
  }
  attr {
    key: "use_locking"
    value {
      b: true
    }
  }
  attr {
    key: "validate_shape"
    value {
      b: true
    }
  }
}
node {
  name: "ConvOnlyResNet/block-3/conv1/biases/read"
  op: "Identity"
  input: "ConvOnlyResNet/block-3/conv1/biases"
  attr {
    key: "T"
    value {
      type: DT_FLOAT
    }
  }
  attr {
    key: "_class"
    value {
      list {
        s: "loc:@ConvOnlyResNet/block-3/conv1/biases"
      }
    }
  }
}
node {
  name: "MSDeepDet/ConvOnlyResNet/block-3/conv1/weights/tag"
  op: "Const"
  attr {
    key: "dtype"
    value {
      type: DT_STRING
    }
  }
  attr {
    key: "value"
    value {
      tensor {
        dtype: DT_STRING
        tensor_shape {
        }
        string_val: "MSDeepDet/ConvOnlyResNet/block-3/conv1/weights"
      }
    }
  }
}
node {
  name: "MSDeepDet/ConvOnlyResNet/block-3/conv1/weights"
  op: "HistogramSummary"
  input: "MSDeepDet/ConvOnlyResNet/block-3/conv1/weights/tag"
  input: "ConvOnlyResNet/block-3/conv1/weights/read"
  attr {
    key: "T"
    value {
      type: DT_FLOAT
    }
  }
}
node {
  name: "MSDeepDet/ConvOnlyResNet/block-3/conv1/biases/tag"
  op: "Const"
  attr {
    key: "dtype"
    value {
      type: DT_STRING
    }
  }
  attr {
    key: "value"
    value {
      tensor {
        dtype: DT_STRING
        tensor_shape {
        }
        string_val: "MSDeepDet/ConvOnlyResNet/block-3/conv1/biases"
      }
    }
  }
}
node {
  name: "MSDeepDet/ConvOnlyResNet/block-3/conv1/biases"
  op: "HistogramSummary"
  input: "MSDeepDet/ConvOnlyResNet/block-3/conv1/biases/tag"
  input: "ConvOnlyResNet/block-3/conv1/biases/read"
  attr {
    key: "T"
    value {
      type: DT_FLOAT
    }
  }
}
node {
  name: "MSDeepDet/ConvOnlyResNet/block-3/conv1/Conv2D"
  op: "Conv2D"
  input: "MSDeepDet/ConvOnlyResNet/block-3/LeakyRelu/Maximum"
  input: "ConvOnlyResNet/block-3/conv1/weights/read"
  attr {
    key: "T"
    value {
      type: DT_FLOAT
    }
  }
  attr {
    key: "data_format"
    value {
      s: "NHWC"
    }
  }
  attr {
    key: "dilations"
    value {
      list {
        i: 1
        i: 1
        i: 1
        i: 1
      }
    }
  }
  attr {
    key: "padding"
    value {
      s: "SAME"
    }
  }
  attr {
    key: "strides"
    value {
      list {
        i: 1
        i: 1
        i: 1
        i: 1
      }
    }
  }
  attr {
    key: "use_cudnn_on_gpu"
    value {
      b: true
    }
  }
}
node {
  name: "MSDeepDet/ConvOnlyResNet/block-3/conv1/BiasAdd"
  op: "BiasAdd"
  input: "MSDeepDet/ConvOnlyResNet/block-3/conv1/Conv2D"
  input: "ConvOnlyResNet/block-3/conv1/biases/read"
  attr {
    key: "T"
    value {
      type: DT_FLOAT
    }
  }
  attr {
    key: "data_format"
    value {
      s: "NHWC"
    }
  }
}
node {
  name: "ConvOnlyResNet/block-3/mid-bn/gamma/Initializer/ones"
  op: "Const"
  attr {
    key: "_class"
    value {
      list {
        s: "loc:@ConvOnlyResNet/block-3/mid-bn/gamma"
      }
    }
  }
  attr {
    key: "dtype"
    value {
      type: DT_FLOAT
    }
  }
  attr {
    key: "value"
    value {
      tensor {
        dtype: DT_FLOAT
        tensor_shape {
          dim {
            size: 16
          }
        }
        float_val: 1.0
      }
    }
  }
}
node {
  name: "ConvOnlyResNet/block-3/mid-bn/gamma"
  op: "VariableV2"
  attr {
    key: "_class"
    value {
      list {
        s: "loc:@ConvOnlyResNet/block-3/mid-bn/gamma"
      }
    }
  }
  attr {
    key: "container"
    value {
      s: ""
    }
  }
  attr {
    key: "dtype"
    value {
      type: DT_FLOAT
    }
  }
  attr {
    key: "shape"
    value {
      shape {
        dim {
          size: 16
        }
      }
    }
  }
  attr {
    key: "shared_name"
    value {
      s: ""
    }
  }
}
node {
  name: "ConvOnlyResNet/block-3/mid-bn/gamma/Assign"
  op: "Assign"
  input: "ConvOnlyResNet/block-3/mid-bn/gamma"
  input: "ConvOnlyResNet/block-3/mid-bn/gamma/Initializer/ones"
  attr {
    key: "T"
    value {
      type: DT_FLOAT
    }
  }
  attr {
    key: "_class"
    value {
      list {
        s: "loc:@ConvOnlyResNet/block-3/mid-bn/gamma"
      }
    }
  }
  attr {
    key: "use_locking"
    value {
      b: true
    }
  }
  attr {
    key: "validate_shape"
    value {
      b: true
    }
  }
}
node {
  name: "ConvOnlyResNet/block-3/mid-bn/gamma/read"
  op: "Identity"
  input: "ConvOnlyResNet/block-3/mid-bn/gamma"
  attr {
    key: "T"
    value {
      type: DT_FLOAT
    }
  }
  attr {
    key: "_class"
    value {
      list {
        s: "loc:@ConvOnlyResNet/block-3/mid-bn/gamma"
      }
    }
  }
}
node {
  name: "ConvOnlyResNet/block-3/mid-bn/beta/Initializer/zeros"
  op: "Const"
  attr {
    key: "_class"
    value {
      list {
        s: "loc:@ConvOnlyResNet/block-3/mid-bn/beta"
      }
    }
  }
  attr {
    key: "dtype"
    value {
      type: DT_FLOAT
    }
  }
  attr {
    key: "value"
    value {
      tensor {
        dtype: DT_FLOAT
        tensor_shape {
          dim {
            size: 16
          }
        }
        float_val: 0.0
      }
    }
  }
}
node {
  name: "ConvOnlyResNet/block-3/mid-bn/beta"
  op: "VariableV2"
  attr {
    key: "_class"
    value {
      list {
        s: "loc:@ConvOnlyResNet/block-3/mid-bn/beta"
      }
    }
  }
  attr {
    key: "container"
    value {
      s: ""
    }
  }
  attr {
    key: "dtype"
    value {
      type: DT_FLOAT
    }
  }
  attr {
    key: "shape"
    value {
      shape {
        dim {
          size: 16
        }
      }
    }
  }
  attr {
    key: "shared_name"
    value {
      s: ""
    }
  }
}
node {
  name: "ConvOnlyResNet/block-3/mid-bn/beta/Assign"
  op: "Assign"
  input: "ConvOnlyResNet/block-3/mid-bn/beta"
  input: "ConvOnlyResNet/block-3/mid-bn/beta/Initializer/zeros"
  attr {
    key: "T"
    value {
      type: DT_FLOAT
    }
  }
  attr {
    key: "_class"
    value {
      list {
        s: "loc:@ConvOnlyResNet/block-3/mid-bn/beta"
      }
    }
  }
  attr {
    key: "use_locking"
    value {
      b: true
    }
  }
  attr {
    key: "validate_shape"
    value {
      b: true
    }
  }
}
node {
  name: "ConvOnlyResNet/block-3/mid-bn/beta/read"
  op: "Identity"
  input: "ConvOnlyResNet/block-3/mid-bn/beta"
  attr {
    key: "T"
    value {
      type: DT_FLOAT
    }
  }
  attr {
    key: "_class"
    value {
      list {
        s: "loc:@ConvOnlyResNet/block-3/mid-bn/beta"
      }
    }
  }
}
node {
  name: "ConvOnlyResNet/block-3/mid-bn/moving_mean/Initializer/zeros"
  op: "Const"
  attr {
    key: "_class"
    value {
      list {
        s: "loc:@ConvOnlyResNet/block-3/mid-bn/moving_mean"
      }
    }
  }
  attr {
    key: "dtype"
    value {
      type: DT_FLOAT
    }
  }
  attr {
    key: "value"
    value {
      tensor {
        dtype: DT_FLOAT
        tensor_shape {
          dim {
            size: 16
          }
        }
        float_val: 0.0
      }
    }
  }
}
node {
  name: "ConvOnlyResNet/block-3/mid-bn/moving_mean"
  op: "VariableV2"
  attr {
    key: "_class"
    value {
      list {
        s: "loc:@ConvOnlyResNet/block-3/mid-bn/moving_mean"
      }
    }
  }
  attr {
    key: "container"
    value {
      s: ""
    }
  }
  attr {
    key: "dtype"
    value {
      type: DT_FLOAT
    }
  }
  attr {
    key: "shape"
    value {
      shape {
        dim {
          size: 16
        }
      }
    }
  }
  attr {
    key: "shared_name"
    value {
      s: ""
    }
  }
}
node {
  name: "ConvOnlyResNet/block-3/mid-bn/moving_mean/Assign"
  op: "Assign"
  input: "ConvOnlyResNet/block-3/mid-bn/moving_mean"
  input: "ConvOnlyResNet/block-3/mid-bn/moving_mean/Initializer/zeros"
  attr {
    key: "T"
    value {
      type: DT_FLOAT
    }
  }
  attr {
    key: "_class"
    value {
      list {
        s: "loc:@ConvOnlyResNet/block-3/mid-bn/moving_mean"
      }
    }
  }
  attr {
    key: "use_locking"
    value {
      b: true
    }
  }
  attr {
    key: "validate_shape"
    value {
      b: true
    }
  }
}
node {
  name: "ConvOnlyResNet/block-3/mid-bn/moving_mean/read"
  op: "Identity"
  input: "ConvOnlyResNet/block-3/mid-bn/moving_mean"
  attr {
    key: "T"
    value {
      type: DT_FLOAT
    }
  }
  attr {
    key: "_class"
    value {
      list {
        s: "loc:@ConvOnlyResNet/block-3/mid-bn/moving_mean"
      }
    }
  }
}
node {
  name: "ConvOnlyResNet/block-3/mid-bn/moving_variance/Initializer/ones"
  op: "Const"
  attr {
    key: "_class"
    value {
      list {
        s: "loc:@ConvOnlyResNet/block-3/mid-bn/moving_variance"
      }
    }
  }
  attr {
    key: "dtype"
    value {
      type: DT_FLOAT
    }
  }
  attr {
    key: "value"
    value {
      tensor {
        dtype: DT_FLOAT
        tensor_shape {
          dim {
            size: 16
          }
        }
        float_val: 1.0
      }
    }
  }
}
node {
  name: "ConvOnlyResNet/block-3/mid-bn/moving_variance"
  op: "VariableV2"
  attr {
    key: "_class"
    value {
      list {
        s: "loc:@ConvOnlyResNet/block-3/mid-bn/moving_variance"
      }
    }
  }
  attr {
    key: "container"
    value {
      s: ""
    }
  }
  attr {
    key: "dtype"
    value {
      type: DT_FLOAT
    }
  }
  attr {
    key: "shape"
    value {
      shape {
        dim {
          size: 16
        }
      }
    }
  }
  attr {
    key: "shared_name"
    value {
      s: ""
    }
  }
}
node {
  name: "ConvOnlyResNet/block-3/mid-bn/moving_variance/Assign"
  op: "Assign"
  input: "ConvOnlyResNet/block-3/mid-bn/moving_variance"
  input: "ConvOnlyResNet/block-3/mid-bn/moving_variance/Initializer/ones"
  attr {
    key: "T"
    value {
      type: DT_FLOAT
    }
  }
  attr {
    key: "_class"
    value {
      list {
        s: "loc:@ConvOnlyResNet/block-3/mid-bn/moving_variance"
      }
    }
  }
  attr {
    key: "use_locking"
    value {
      b: true
    }
  }
  attr {
    key: "validate_shape"
    value {
      b: true
    }
  }
}
node {
  name: "ConvOnlyResNet/block-3/mid-bn/moving_variance/read"
  op: "Identity"
  input: "ConvOnlyResNet/block-3/mid-bn/moving_variance"
  attr {
    key: "T"
    value {
      type: DT_FLOAT
    }
  }
  attr {
    key: "_class"
    value {
      list {
        s: "loc:@ConvOnlyResNet/block-3/mid-bn/moving_variance"
      }
    }
  }
}
node {
  name: "MSDeepDet/ConvOnlyResNet/block-3/mid-bn/FusedBatchNorm"
  op: "FusedBatchNorm"
  input: "MSDeepDet/ConvOnlyResNet/block-3/conv1/BiasAdd"
  input: "ConvOnlyResNet/block-3/mid-bn/gamma/read"
  input: "ConvOnlyResNet/block-3/mid-bn/beta/read"
  input: "ConvOnlyResNet/block-3/mid-bn/moving_mean/read"
  input: "ConvOnlyResNet/block-3/mid-bn/moving_variance/read"
  attr {
    key: "T"
    value {
      type: DT_FLOAT
    }
  }
  attr {
    key: "data_format"
    value {
      s: "NHWC"
    }
  }
  attr {
    key: "epsilon"
    value {
      f: 1.0009999641624745e-05
    }
  }
  attr {
    key: "is_training"
    value {
      b: false
    }
  }
}
node {
  name: "MSDeepDet/ConvOnlyResNet/block-3/mid-bn/Const"
  op: "Const"
  attr {
    key: "dtype"
    value {
      type: DT_FLOAT
    }
  }
  attr {
    key: "value"
    value {
      tensor {
        dtype: DT_FLOAT
        tensor_shape {
        }
        float_val: 0.8999999761581421
      }
    }
  }
}
node {
  name: "MSDeepDet/ConvOnlyResNet/block-3/LeakyRelu_1/alpha"
  op: "Const"
  attr {
    key: "dtype"
    value {
      type: DT_FLOAT
    }
  }
  attr {
    key: "value"
    value {
      tensor {
        dtype: DT_FLOAT
        tensor_shape {
        }
        float_val: 0.20000000298023224
      }
    }
  }
}
node {
  name: "MSDeepDet/ConvOnlyResNet/block-3/LeakyRelu_1/mul"
  op: "Mul"
  input: "MSDeepDet/ConvOnlyResNet/block-3/LeakyRelu_1/alpha"
  input: "MSDeepDet/ConvOnlyResNet/block-3/mid-bn/FusedBatchNorm"
  attr {
    key: "T"
    value {
      type: DT_FLOAT
    }
  }
}
node {
  name: "MSDeepDet/ConvOnlyResNet/block-3/LeakyRelu_1/Maximum"
  op: "Maximum"
  input: "MSDeepDet/ConvOnlyResNet/block-3/LeakyRelu_1/mul"
  input: "MSDeepDet/ConvOnlyResNet/block-3/mid-bn/FusedBatchNorm"
  attr {
    key: "T"
    value {
      type: DT_FLOAT
    }
  }
}
node {
  name: "ConvOnlyResNet/block-3/conv2/weights/Initializer/random_uniform/shape"
  op: "Const"
  attr {
    key: "_class"
    value {
      list {
        s: "loc:@ConvOnlyResNet/block-3/conv2/weights"
      }
    }
  }
  attr {
    key: "dtype"
    value {
      type: DT_INT32
    }
  }
  attr {
    key: "value"
    value {
      tensor {
        dtype: DT_INT32
        tensor_shape {
          dim {
            size: 4
          }
        }
        tensor_content: "\005\000\000\000\005\000\000\000\020\000\000\000\020\000\000\000"
      }
    }
  }
}
node {
  name: "ConvOnlyResNet/block-3/conv2/weights/Initializer/random_uniform/min"
  op: "Const"
  attr {
    key: "_class"
    value {
      list {
        s: "loc:@ConvOnlyResNet/block-3/conv2/weights"
      }
    }
  }
  attr {
    key: "dtype"
    value {
      type: DT_FLOAT
    }
  }
  attr {
    key: "value"
    value {
      tensor {
        dtype: DT_FLOAT
        tensor_shape {
        }
        float_val: -0.08660253882408142
      }
    }
  }
}
node {
  name: "ConvOnlyResNet/block-3/conv2/weights/Initializer/random_uniform/max"
  op: "Const"
  attr {
    key: "_class"
    value {
      list {
        s: "loc:@ConvOnlyResNet/block-3/conv2/weights"
      }
    }
  }
  attr {
    key: "dtype"
    value {
      type: DT_FLOAT
    }
  }
  attr {
    key: "value"
    value {
      tensor {
        dtype: DT_FLOAT
        tensor_shape {
        }
        float_val: 0.08660253882408142
      }
    }
  }
}
node {
  name: "ConvOnlyResNet/block-3/conv2/weights/Initializer/random_uniform/RandomUniform"
  op: "RandomUniform"
  input: "ConvOnlyResNet/block-3/conv2/weights/Initializer/random_uniform/shape"
  attr {
    key: "T"
    value {
      type: DT_INT32
    }
  }
  attr {
    key: "_class"
    value {
      list {
        s: "loc:@ConvOnlyResNet/block-3/conv2/weights"
      }
    }
  }
  attr {
    key: "dtype"
    value {
      type: DT_FLOAT
    }
  }
  attr {
    key: "seed"
    value {
      i: 0
    }
  }
  attr {
    key: "seed2"
    value {
      i: 0
    }
  }
}
node {
  name: "ConvOnlyResNet/block-3/conv2/weights/Initializer/random_uniform/sub"
  op: "Sub"
  input: "ConvOnlyResNet/block-3/conv2/weights/Initializer/random_uniform/max"
  input: "ConvOnlyResNet/block-3/conv2/weights/Initializer/random_uniform/min"
  attr {
    key: "T"
    value {
      type: DT_FLOAT
    }
  }
  attr {
    key: "_class"
    value {
      list {
        s: "loc:@ConvOnlyResNet/block-3/conv2/weights"
      }
    }
  }
}
node {
  name: "ConvOnlyResNet/block-3/conv2/weights/Initializer/random_uniform/mul"
  op: "Mul"
  input: "ConvOnlyResNet/block-3/conv2/weights/Initializer/random_uniform/RandomUniform"
  input: "ConvOnlyResNet/block-3/conv2/weights/Initializer/random_uniform/sub"
  attr {
    key: "T"
    value {
      type: DT_FLOAT
    }
  }
  attr {
    key: "_class"
    value {
      list {
        s: "loc:@ConvOnlyResNet/block-3/conv2/weights"
      }
    }
  }
}
node {
  name: "ConvOnlyResNet/block-3/conv2/weights/Initializer/random_uniform"
  op: "Add"
  input: "ConvOnlyResNet/block-3/conv2/weights/Initializer/random_uniform/mul"
  input: "ConvOnlyResNet/block-3/conv2/weights/Initializer/random_uniform/min"
  attr {
    key: "T"
    value {
      type: DT_FLOAT
    }
  }
  attr {
    key: "_class"
    value {
      list {
        s: "loc:@ConvOnlyResNet/block-3/conv2/weights"
      }
    }
  }
}
node {
  name: "ConvOnlyResNet/block-3/conv2/weights"
  op: "VariableV2"
  attr {
    key: "_class"
    value {
      list {
        s: "loc:@ConvOnlyResNet/block-3/conv2/weights"
      }
    }
  }
  attr {
    key: "container"
    value {
      s: ""
    }
  }
  attr {
    key: "dtype"
    value {
      type: DT_FLOAT
    }
  }
  attr {
    key: "shape"
    value {
      shape {
        dim {
          size: 5
        }
        dim {
          size: 5
        }
        dim {
          size: 16
        }
        dim {
          size: 16
        }
      }
    }
  }
  attr {
    key: "shared_name"
    value {
      s: ""
    }
  }
}
node {
  name: "ConvOnlyResNet/block-3/conv2/weights/Assign"
  op: "Assign"
  input: "ConvOnlyResNet/block-3/conv2/weights"
  input: "ConvOnlyResNet/block-3/conv2/weights/Initializer/random_uniform"
  attr {
    key: "T"
    value {
      type: DT_FLOAT
    }
  }
  attr {
    key: "_class"
    value {
      list {
        s: "loc:@ConvOnlyResNet/block-3/conv2/weights"
      }
    }
  }
  attr {
    key: "use_locking"
    value {
      b: true
    }
  }
  attr {
    key: "validate_shape"
    value {
      b: true
    }
  }
}
node {
  name: "ConvOnlyResNet/block-3/conv2/weights/read"
  op: "Identity"
  input: "ConvOnlyResNet/block-3/conv2/weights"
  attr {
    key: "T"
    value {
      type: DT_FLOAT
    }
  }
  attr {
    key: "_class"
    value {
      list {
        s: "loc:@ConvOnlyResNet/block-3/conv2/weights"
      }
    }
  }
}
node {
  name: "ConvOnlyResNet/block-3/conv2/biases/Initializer/zeros"
  op: "Const"
  attr {
    key: "_class"
    value {
      list {
        s: "loc:@ConvOnlyResNet/block-3/conv2/biases"
      }
    }
  }
  attr {
    key: "dtype"
    value {
      type: DT_FLOAT
    }
  }
  attr {
    key: "value"
    value {
      tensor {
        dtype: DT_FLOAT
        tensor_shape {
          dim {
            size: 16
          }
        }
        float_val: 0.0
      }
    }
  }
}
node {
  name: "ConvOnlyResNet/block-3/conv2/biases"
  op: "VariableV2"
  attr {
    key: "_class"
    value {
      list {
        s: "loc:@ConvOnlyResNet/block-3/conv2/biases"
      }
    }
  }
  attr {
    key: "container"
    value {
      s: ""
    }
  }
  attr {
    key: "dtype"
    value {
      type: DT_FLOAT
    }
  }
  attr {
    key: "shape"
    value {
      shape {
        dim {
          size: 16
        }
      }
    }
  }
  attr {
    key: "shared_name"
    value {
      s: ""
    }
  }
}
node {
  name: "ConvOnlyResNet/block-3/conv2/biases/Assign"
  op: "Assign"
  input: "ConvOnlyResNet/block-3/conv2/biases"
  input: "ConvOnlyResNet/block-3/conv2/biases/Initializer/zeros"
  attr {
    key: "T"
    value {
      type: DT_FLOAT
    }
  }
  attr {
    key: "_class"
    value {
      list {
        s: "loc:@ConvOnlyResNet/block-3/conv2/biases"
      }
    }
  }
  attr {
    key: "use_locking"
    value {
      b: true
    }
  }
  attr {
    key: "validate_shape"
    value {
      b: true
    }
  }
}
node {
  name: "ConvOnlyResNet/block-3/conv2/biases/read"
  op: "Identity"
  input: "ConvOnlyResNet/block-3/conv2/biases"
  attr {
    key: "T"
    value {
      type: DT_FLOAT
    }
  }
  attr {
    key: "_class"
    value {
      list {
        s: "loc:@ConvOnlyResNet/block-3/conv2/biases"
      }
    }
  }
}
node {
  name: "MSDeepDet/ConvOnlyResNet/block-3/conv2/weights/tag"
  op: "Const"
  attr {
    key: "dtype"
    value {
      type: DT_STRING
    }
  }
  attr {
    key: "value"
    value {
      tensor {
        dtype: DT_STRING
        tensor_shape {
        }
        string_val: "MSDeepDet/ConvOnlyResNet/block-3/conv2/weights"
      }
    }
  }
}
node {
  name: "MSDeepDet/ConvOnlyResNet/block-3/conv2/weights"
  op: "HistogramSummary"
  input: "MSDeepDet/ConvOnlyResNet/block-3/conv2/weights/tag"
  input: "ConvOnlyResNet/block-3/conv2/weights/read"
  attr {
    key: "T"
    value {
      type: DT_FLOAT
    }
  }
}
node {
  name: "MSDeepDet/ConvOnlyResNet/block-3/conv2/biases/tag"
  op: "Const"
  attr {
    key: "dtype"
    value {
      type: DT_STRING
    }
  }
  attr {
    key: "value"
    value {
      tensor {
        dtype: DT_STRING
        tensor_shape {
        }
        string_val: "MSDeepDet/ConvOnlyResNet/block-3/conv2/biases"
      }
    }
  }
}
node {
  name: "MSDeepDet/ConvOnlyResNet/block-3/conv2/biases"
  op: "HistogramSummary"
  input: "MSDeepDet/ConvOnlyResNet/block-3/conv2/biases/tag"
  input: "ConvOnlyResNet/block-3/conv2/biases/read"
  attr {
    key: "T"
    value {
      type: DT_FLOAT
    }
  }
}
node {
  name: "MSDeepDet/ConvOnlyResNet/block-3/conv2/Conv2D"
  op: "Conv2D"
  input: "MSDeepDet/ConvOnlyResNet/block-3/LeakyRelu_1/Maximum"
  input: "ConvOnlyResNet/block-3/conv2/weights/read"
  attr {
    key: "T"
    value {
      type: DT_FLOAT
    }
  }
  attr {
    key: "data_format"
    value {
      s: "NHWC"
    }
  }
  attr {
    key: "dilations"
    value {
      list {
        i: 1
        i: 1
        i: 1
        i: 1
      }
    }
  }
  attr {
    key: "padding"
    value {
      s: "SAME"
    }
  }
  attr {
    key: "strides"
    value {
      list {
        i: 1
        i: 1
        i: 1
        i: 1
      }
    }
  }
  attr {
    key: "use_cudnn_on_gpu"
    value {
      b: true
    }
  }
}
node {
  name: "MSDeepDet/ConvOnlyResNet/block-3/conv2/BiasAdd"
  op: "BiasAdd"
  input: "MSDeepDet/ConvOnlyResNet/block-3/conv2/Conv2D"
  input: "ConvOnlyResNet/block-3/conv2/biases/read"
  attr {
    key: "T"
    value {
      type: DT_FLOAT
    }
  }
  attr {
    key: "data_format"
    value {
      s: "NHWC"
    }
  }
}
node {
  name: "MSDeepDet/ConvOnlyResNet/block-3/add"
  op: "Add"
  input: "MSDeepDet/ConvOnlyResNet/block-3/conv2/BiasAdd"
  input: "MSDeepDet/ConvOnlyResNet/block-2/add"
  attr {
    key: "T"
    value {
      type: DT_FLOAT
    }
  }
}
node {
  name: "ConvOnlyResNet/fin-bn/gamma/Initializer/ones"
  op: "Const"
  attr {
    key: "_class"
    value {
      list {
        s: "loc:@ConvOnlyResNet/fin-bn/gamma"
      }
    }
  }
  attr {
    key: "dtype"
    value {
      type: DT_FLOAT
    }
  }
  attr {
    key: "value"
    value {
      tensor {
        dtype: DT_FLOAT
        tensor_shape {
          dim {
            size: 16
          }
        }
        float_val: 1.0
      }
    }
  }
}
node {
  name: "ConvOnlyResNet/fin-bn/gamma"
  op: "VariableV2"
  attr {
    key: "_class"
    value {
      list {
        s: "loc:@ConvOnlyResNet/fin-bn/gamma"
      }
    }
  }
  attr {
    key: "container"
    value {
      s: ""
    }
  }
  attr {
    key: "dtype"
    value {
      type: DT_FLOAT
    }
  }
  attr {
    key: "shape"
    value {
      shape {
        dim {
          size: 16
        }
      }
    }
  }
  attr {
    key: "shared_name"
    value {
      s: ""
    }
  }
}
node {
  name: "ConvOnlyResNet/fin-bn/gamma/Assign"
  op: "Assign"
  input: "ConvOnlyResNet/fin-bn/gamma"
  input: "ConvOnlyResNet/fin-bn/gamma/Initializer/ones"
  attr {
    key: "T"
    value {
      type: DT_FLOAT
    }
  }
  attr {
    key: "_class"
    value {
      list {
        s: "loc:@ConvOnlyResNet/fin-bn/gamma"
      }
    }
  }
  attr {
    key: "use_locking"
    value {
      b: true
    }
  }
  attr {
    key: "validate_shape"
    value {
      b: true
    }
  }
}
node {
  name: "ConvOnlyResNet/fin-bn/gamma/read"
  op: "Identity"
  input: "ConvOnlyResNet/fin-bn/gamma"
  attr {
    key: "T"
    value {
      type: DT_FLOAT
    }
  }
  attr {
    key: "_class"
    value {
      list {
        s: "loc:@ConvOnlyResNet/fin-bn/gamma"
      }
    }
  }
}
node {
  name: "ConvOnlyResNet/fin-bn/beta/Initializer/zeros"
  op: "Const"
  attr {
    key: "_class"
    value {
      list {
        s: "loc:@ConvOnlyResNet/fin-bn/beta"
      }
    }
  }
  attr {
    key: "dtype"
    value {
      type: DT_FLOAT
    }
  }
  attr {
    key: "value"
    value {
      tensor {
        dtype: DT_FLOAT
        tensor_shape {
          dim {
            size: 16
          }
        }
        float_val: 0.0
      }
    }
  }
}
node {
  name: "ConvOnlyResNet/fin-bn/beta"
  op: "VariableV2"
  attr {
    key: "_class"
    value {
      list {
        s: "loc:@ConvOnlyResNet/fin-bn/beta"
      }
    }
  }
  attr {
    key: "container"
    value {
      s: ""
    }
  }
  attr {
    key: "dtype"
    value {
      type: DT_FLOAT
    }
  }
  attr {
    key: "shape"
    value {
      shape {
        dim {
          size: 16
        }
      }
    }
  }
  attr {
    key: "shared_name"
    value {
      s: ""
    }
  }
}
node {
  name: "ConvOnlyResNet/fin-bn/beta/Assign"
  op: "Assign"
  input: "ConvOnlyResNet/fin-bn/beta"
  input: "ConvOnlyResNet/fin-bn/beta/Initializer/zeros"
  attr {
    key: "T"
    value {
      type: DT_FLOAT
    }
  }
  attr {
    key: "_class"
    value {
      list {
        s: "loc:@ConvOnlyResNet/fin-bn/beta"
      }
    }
  }
  attr {
    key: "use_locking"
    value {
      b: true
    }
  }
  attr {
    key: "validate_shape"
    value {
      b: true
    }
  }
}
node {
  name: "ConvOnlyResNet/fin-bn/beta/read"
  op: "Identity"
  input: "ConvOnlyResNet/fin-bn/beta"
  attr {
    key: "T"
    value {
      type: DT_FLOAT
    }
  }
  attr {
    key: "_class"
    value {
      list {
        s: "loc:@ConvOnlyResNet/fin-bn/beta"
      }
    }
  }
}
node {
  name: "ConvOnlyResNet/fin-bn/moving_mean/Initializer/zeros"
  op: "Const"
  attr {
    key: "_class"
    value {
      list {
        s: "loc:@ConvOnlyResNet/fin-bn/moving_mean"
      }
    }
  }
  attr {
    key: "dtype"
    value {
      type: DT_FLOAT
    }
  }
  attr {
    key: "value"
    value {
      tensor {
        dtype: DT_FLOAT
        tensor_shape {
          dim {
            size: 16
          }
        }
        float_val: 0.0
      }
    }
  }
}
node {
  name: "ConvOnlyResNet/fin-bn/moving_mean"
  op: "VariableV2"
  attr {
    key: "_class"
    value {
      list {
        s: "loc:@ConvOnlyResNet/fin-bn/moving_mean"
      }
    }
  }
  attr {
    key: "container"
    value {
      s: ""
    }
  }
  attr {
    key: "dtype"
    value {
      type: DT_FLOAT
    }
  }
  attr {
    key: "shape"
    value {
      shape {
        dim {
          size: 16
        }
      }
    }
  }
  attr {
    key: "shared_name"
    value {
      s: ""
    }
  }
}
node {
  name: "ConvOnlyResNet/fin-bn/moving_mean/Assign"
  op: "Assign"
  input: "ConvOnlyResNet/fin-bn/moving_mean"
  input: "ConvOnlyResNet/fin-bn/moving_mean/Initializer/zeros"
  attr {
    key: "T"
    value {
      type: DT_FLOAT
    }
  }
  attr {
    key: "_class"
    value {
      list {
        s: "loc:@ConvOnlyResNet/fin-bn/moving_mean"
      }
    }
  }
  attr {
    key: "use_locking"
    value {
      b: true
    }
  }
  attr {
    key: "validate_shape"
    value {
      b: true
    }
  }
}
node {
  name: "ConvOnlyResNet/fin-bn/moving_mean/read"
  op: "Identity"
  input: "ConvOnlyResNet/fin-bn/moving_mean"
  attr {
    key: "T"
    value {
      type: DT_FLOAT
    }
  }
  attr {
    key: "_class"
    value {
      list {
        s: "loc:@ConvOnlyResNet/fin-bn/moving_mean"
      }
    }
  }
}
node {
  name: "ConvOnlyResNet/fin-bn/moving_variance/Initializer/ones"
  op: "Const"
  attr {
    key: "_class"
    value {
      list {
        s: "loc:@ConvOnlyResNet/fin-bn/moving_variance"
      }
    }
  }
  attr {
    key: "dtype"
    value {
      type: DT_FLOAT
    }
  }
  attr {
    key: "value"
    value {
      tensor {
        dtype: DT_FLOAT
        tensor_shape {
          dim {
            size: 16
          }
        }
        float_val: 1.0
      }
    }
  }
}
node {
  name: "ConvOnlyResNet/fin-bn/moving_variance"
  op: "VariableV2"
  attr {
    key: "_class"
    value {
      list {
        s: "loc:@ConvOnlyResNet/fin-bn/moving_variance"
      }
    }
  }
  attr {
    key: "container"
    value {
      s: ""
    }
  }
  attr {
    key: "dtype"
    value {
      type: DT_FLOAT
    }
  }
  attr {
    key: "shape"
    value {
      shape {
        dim {
          size: 16
        }
      }
    }
  }
  attr {
    key: "shared_name"
    value {
      s: ""
    }
  }
}
node {
  name: "ConvOnlyResNet/fin-bn/moving_variance/Assign"
  op: "Assign"
  input: "ConvOnlyResNet/fin-bn/moving_variance"
  input: "ConvOnlyResNet/fin-bn/moving_variance/Initializer/ones"
  attr {
    key: "T"
    value {
      type: DT_FLOAT
    }
  }
  attr {
    key: "_class"
    value {
      list {
        s: "loc:@ConvOnlyResNet/fin-bn/moving_variance"
      }
    }
  }
  attr {
    key: "use_locking"
    value {
      b: true
    }
  }
  attr {
    key: "validate_shape"
    value {
      b: true
    }
  }
}
node {
  name: "ConvOnlyResNet/fin-bn/moving_variance/read"
  op: "Identity"
  input: "ConvOnlyResNet/fin-bn/moving_variance"
  attr {
    key: "T"
    value {
      type: DT_FLOAT
    }
  }
  attr {
    key: "_class"
    value {
      list {
        s: "loc:@ConvOnlyResNet/fin-bn/moving_variance"
      }
    }
  }
}
node {
  name: "MSDeepDet/ConvOnlyResNet/fin-bn/FusedBatchNorm"
  op: "FusedBatchNorm"
  input: "MSDeepDet/ConvOnlyResNet/block-3/add"
  input: "ConvOnlyResNet/fin-bn/gamma/read"
  input: "ConvOnlyResNet/fin-bn/beta/read"
  input: "ConvOnlyResNet/fin-bn/moving_mean/read"
  input: "ConvOnlyResNet/fin-bn/moving_variance/read"
  attr {
    key: "T"
    value {
      type: DT_FLOAT
    }
  }
  attr {
    key: "data_format"
    value {
      s: "NHWC"
    }
  }
  attr {
    key: "epsilon"
    value {
      f: 1.0009999641624745e-05
    }
  }
  attr {
    key: "is_training"
    value {
      b: false
    }
  }
}
node {
  name: "MSDeepDet/ConvOnlyResNet/fin-bn/Const"
  op: "Const"
  attr {
    key: "dtype"
    value {
      type: DT_FLOAT
    }
  }
  attr {
    key: "value"
    value {
      tensor {
        dtype: DT_FLOAT
        tensor_shape {
        }
        float_val: 0.8999999761581421
      }
    }
  }
}
node {
  name: "MSDeepDet/ConvOnlyResNet/LeakyRelu/alpha"
  op: "Const"
  attr {
    key: "dtype"
    value {
      type: DT_FLOAT
    }
  }
  attr {
    key: "value"
    value {
      tensor {
        dtype: DT_FLOAT
        tensor_shape {
        }
        float_val: 0.20000000298023224
      }
    }
  }
}
node {
  name: "MSDeepDet/ConvOnlyResNet/LeakyRelu/mul"
  op: "Mul"
  input: "MSDeepDet/ConvOnlyResNet/LeakyRelu/alpha"
  input: "MSDeepDet/ConvOnlyResNet/fin-bn/FusedBatchNorm"
  attr {
    key: "T"
    value {
      type: DT_FLOAT
    }
  }
}
node {
  name: "MSDeepDet/ConvOnlyResNet/LeakyRelu/Maximum"
  op: "Maximum"
  input: "MSDeepDet/ConvOnlyResNet/LeakyRelu/mul"
  input: "MSDeepDet/ConvOnlyResNet/fin-bn/FusedBatchNorm"
  attr {
    key: "T"
    value {
      type: DT_FLOAT
    }
  }
}
node {
  name: "MSDeepDet/ConvOnlyResNet/Identity_1"
  op: "Identity"
  input: "MSDeepDet/ConvOnlyResNet/LeakyRelu/Maximum"
  attr {
    key: "T"
    value {
      type: DT_FLOAT
    }
  }
}
node {
  name: "MSDeepDet/ConvOnlyResNet/Shape"
  op: "Shape"
  input: "MSDeepDet/ConvOnlyResNet/LeakyRelu/Maximum"
  attr {
    key: "T"
    value {
      type: DT_FLOAT
    }
  }
  attr {
    key: "out_type"
    value {
      type: DT_INT32
    }
  }
}
node {
  name: "MSDeepDet/ConvOnlyResNet/strided_slice/stack"
  op: "Const"
  attr {
    key: "dtype"
    value {
      type: DT_INT32
    }
  }
  attr {
    key: "value"
    value {
      tensor {
        dtype: DT_INT32
        tensor_shape {
          dim {
            size: 1
          }
        }
        int_val: 1
      }
    }
  }
}
node {
  name: "MSDeepDet/ConvOnlyResNet/strided_slice/stack_1"
  op: "Const"
  attr {
    key: "dtype"
    value {
      type: DT_INT32
    }
  }
  attr {
    key: "value"
    value {
      tensor {
        dtype: DT_INT32
        tensor_shape {
          dim {
            size: 1
          }
        }
        int_val: 2
      }
    }
  }
}
node {
  name: "MSDeepDet/ConvOnlyResNet/strided_slice/stack_2"
  op: "Const"
  attr {
    key: "dtype"
    value {
      type: DT_INT32
    }
  }
  attr {
    key: "value"
    value {
      tensor {
        dtype: DT_INT32
        tensor_shape {
          dim {
            size: 1
          }
        }
        int_val: 1
      }
    }
  }
}
node {
  name: "MSDeepDet/ConvOnlyResNet/strided_slice"
  op: "StridedSlice"
  input: "MSDeepDet/ConvOnlyResNet/Shape"
  input: "MSDeepDet/ConvOnlyResNet/strided_slice/stack"
  input: "MSDeepDet/ConvOnlyResNet/strided_slice/stack_1"
  input: "MSDeepDet/ConvOnlyResNet/strided_slice/stack_2"
  attr {
    key: "Index"
    value {
      type: DT_INT32
    }
  }
  attr {
    key: "T"
    value {
      type: DT_INT32
    }
  }
  attr {
    key: "begin_mask"
    value {
      i: 0
    }
  }
  attr {
    key: "ellipsis_mask"
    value {
      i: 0
    }
  }
  attr {
    key: "end_mask"
    value {
      i: 0
    }
  }
  attr {
    key: "new_axis_mask"
    value {
      i: 0
    }
  }
  attr {
    key: "shrink_axis_mask"
    value {
      i: 1
    }
  }
}
node {
  name: "MSDeepDet/ConvOnlyResNet/ToFloat"
  op: "Cast"
  input: "MSDeepDet/ConvOnlyResNet/strided_slice"
  attr {
    key: "DstT"
    value {
      type: DT_FLOAT
    }
  }
  attr {
    key: "SrcT"
    value {
      type: DT_INT32
    }
  }
}
node {
  name: "MSDeepDet/ConvOnlyResNet/Shape_1"
  op: "Shape"
  input: "MSDeepDet/ConvOnlyResNet/LeakyRelu/Maximum"
  attr {
    key: "T"
    value {
      type: DT_FLOAT
    }
  }
  attr {
    key: "out_type"
    value {
      type: DT_INT32
    }
  }
}
node {
  name: "MSDeepDet/ConvOnlyResNet/strided_slice_1/stack"
  op: "Const"
  attr {
    key: "dtype"
    value {
      type: DT_INT32
    }
  }
  attr {
    key: "value"
    value {
      tensor {
        dtype: DT_INT32
        tensor_shape {
          dim {
            size: 1
          }
        }
        int_val: 2
      }
    }
  }
}
node {
  name: "MSDeepDet/ConvOnlyResNet/strided_slice_1/stack_1"
  op: "Const"
  attr {
    key: "dtype"
    value {
      type: DT_INT32
    }
  }
  attr {
    key: "value"
    value {
      tensor {
        dtype: DT_INT32
        tensor_shape {
          dim {
            size: 1
          }
        }
        int_val: 3
      }
    }
  }
}
node {
  name: "MSDeepDet/ConvOnlyResNet/strided_slice_1/stack_2"
  op: "Const"
  attr {
    key: "dtype"
    value {
      type: DT_INT32
    }
  }
  attr {
    key: "value"
    value {
      tensor {
        dtype: DT_INT32
        tensor_shape {
          dim {
            size: 1
          }
        }
        int_val: 1
      }
    }
  }
}
node {
  name: "MSDeepDet/ConvOnlyResNet/strided_slice_1"
  op: "StridedSlice"
  input: "MSDeepDet/ConvOnlyResNet/Shape_1"
  input: "MSDeepDet/ConvOnlyResNet/strided_slice_1/stack"
  input: "MSDeepDet/ConvOnlyResNet/strided_slice_1/stack_1"
  input: "MSDeepDet/ConvOnlyResNet/strided_slice_1/stack_2"
  attr {
    key: "Index"
    value {
      type: DT_INT32
    }
  }
  attr {
    key: "T"
    value {
      type: DT_INT32
    }
  }
  attr {
    key: "begin_mask"
    value {
      i: 0
    }
  }
  attr {
    key: "ellipsis_mask"
    value {
      i: 0
    }
  }
  attr {
    key: "end_mask"
    value {
      i: 0
    }
  }
  attr {
    key: "new_axis_mask"
    value {
      i: 0
    }
  }
  attr {
    key: "shrink_axis_mask"
    value {
      i: 1
    }
  }
}
node {
  name: "MSDeepDet/ConvOnlyResNet/ToFloat_1"
  op: "Cast"
  input: "MSDeepDet/ConvOnlyResNet/strided_slice_1"
  attr {
    key: "DstT"
    value {
      type: DT_FLOAT
    }
  }
  attr {
    key: "SrcT"
    value {
      type: DT_INT32
    }
  }
}
node {
  name: "MSDeepDet/ConvOnlyResNet/mul/y"
  op: "Const"
  attr {
    key: "dtype"
    value {
      type: DT_FLOAT
    }
  }
  attr {
    key: "value"
    value {
      tensor {
        dtype: DT_FLOAT
        tensor_shape {
        }
        float_val: 0.7071067690849304
      }
    }
  }
}
node {
  name: "MSDeepDet/ConvOnlyResNet/mul"
  op: "Mul"
  input: "MSDeepDet/ConvOnlyResNet/ToFloat"
  input: "MSDeepDet/ConvOnlyResNet/mul/y"
  attr {
    key: "T"
    value {
      type: DT_FLOAT
    }
  }
}
node {
  name: "MSDeepDet/ConvOnlyResNet/add/y"
  op: "Const"
  attr {
    key: "dtype"
    value {
      type: DT_FLOAT
    }
  }
  attr {
    key: "value"
    value {
      tensor {
        dtype: DT_FLOAT
        tensor_shape {
        }
        float_val: 0.5
      }
    }
  }
}
node {
  name: "MSDeepDet/ConvOnlyResNet/add"
  op: "Add"
  input: "MSDeepDet/ConvOnlyResNet/mul"
  input: "MSDeepDet/ConvOnlyResNet/add/y"
  attr {
    key: "T"
    value {
      type: DT_FLOAT
    }
  }
}
node {
  name: "MSDeepDet/ConvOnlyResNet/Cast"
  op: "Cast"
  input: "MSDeepDet/ConvOnlyResNet/add"
  attr {
    key: "DstT"
    value {
      type: DT_INT32
    }
  }
  attr {
    key: "SrcT"
    value {
      type: DT_FLOAT
    }
  }
}
node {
  name: "MSDeepDet/ConvOnlyResNet/mul_1/y"
  op: "Const"
  attr {
    key: "dtype"
    value {
      type: DT_FLOAT
    }
  }
  attr {
    key: "value"
    value {
      tensor {
        dtype: DT_FLOAT
        tensor_shape {
        }
        float_val: 0.7071067690849304
      }
    }
  }
}
node {
  name: "MSDeepDet/ConvOnlyResNet/mul_1"
  op: "Mul"
  input: "MSDeepDet/ConvOnlyResNet/ToFloat_1"
  input: "MSDeepDet/ConvOnlyResNet/mul_1/y"
  attr {
    key: "T"
    value {
      type: DT_FLOAT
    }
  }
}
node {
  name: "MSDeepDet/ConvOnlyResNet/add_1/y"
  op: "Const"
  attr {
    key: "dtype"
    value {
      type: DT_FLOAT
    }
  }
  attr {
    key: "value"
    value {
      tensor {
        dtype: DT_FLOAT
        tensor_shape {
        }
        float_val: 0.5
      }
    }
  }
}
node {
  name: "MSDeepDet/ConvOnlyResNet/add_1"
  op: "Add"
  input: "MSDeepDet/ConvOnlyResNet/mul_1"
  input: "MSDeepDet/ConvOnlyResNet/add_1/y"
  attr {
    key: "T"
    value {
      type: DT_FLOAT
    }
  }
}
node {
  name: "MSDeepDet/ConvOnlyResNet/Cast_1"
  op: "Cast"
  input: "MSDeepDet/ConvOnlyResNet/add_1"
  attr {
    key: "DstT"
    value {
      type: DT_INT32
    }
  }
  attr {
    key: "SrcT"
    value {
      type: DT_FLOAT
    }
  }
}
node {
  name: "MSDeepDet/ConvOnlyResNet/stack"
  op: "Pack"
  input: "MSDeepDet/ConvOnlyResNet/Cast"
  input: "MSDeepDet/ConvOnlyResNet/Cast_1"
  attr {
    key: "N"
    value {
      i: 2
    }
  }
  attr {
    key: "T"
    value {
      type: DT_INT32
    }
  }
  attr {
    key: "axis"
    value {
      i: 0
    }
  }
}
node {
  name: "MSDeepDet/ConvOnlyResNet/resize_images/ResizeBilinear"
  op: "ResizeBilinear"
  input: "MSDeepDet/ConvOnlyResNet/LeakyRelu/Maximum"
  input: "MSDeepDet/ConvOnlyResNet/stack"
  attr {
    key: "T"
    value {
      type: DT_FLOAT
    }
  }
  attr {
    key: "align_corners"
    value {
      b: false
    }
  }
}
node {
  name: "ConvOnlyResNet/score_conv_0/weights/Initializer/random_uniform/shape"
  op: "Const"
  attr {
    key: "_class"
    value {
      list {
        s: "loc:@ConvOnlyResNet/score_conv_0/weights"
      }
    }
  }
  attr {
    key: "dtype"
    value {
      type: DT_INT32
    }
  }
  attr {
    key: "value"
    value {
      tensor {
        dtype: DT_INT32
        tensor_shape {
          dim {
            size: 4
          }
        }
        tensor_content: "\005\000\000\000\005\000\000\000\020\000\000\000\001\000\000\000"
      }
    }
  }
}
node {
  name: "ConvOnlyResNet/score_conv_0/weights/Initializer/random_uniform/min"
  op: "Const"
  attr {
    key: "_class"
    value {
      list {
        s: "loc:@ConvOnlyResNet/score_conv_0/weights"
      }
    }
  }
  attr {
    key: "dtype"
    value {
      type: DT_FLOAT
    }
  }
  attr {
    key: "value"
    value {
      tensor {
        dtype: DT_FLOAT
        tensor_shape {
        }
        float_val: -0.11881770193576813
      }
    }
  }
}
node {
  name: "ConvOnlyResNet/score_conv_0/weights/Initializer/random_uniform/max"
  op: "Const"
  attr {
    key: "_class"
    value {
      list {
        s: "loc:@ConvOnlyResNet/score_conv_0/weights"
      }
    }
  }
  attr {
    key: "dtype"
    value {
      type: DT_FLOAT
    }
  }
  attr {
    key: "value"
    value {
      tensor {
        dtype: DT_FLOAT
        tensor_shape {
        }
        float_val: 0.11881770193576813
      }
    }
  }
}
node {
  name: "ConvOnlyResNet/score_conv_0/weights/Initializer/random_uniform/RandomUniform"
  op: "RandomUniform"
  input: "ConvOnlyResNet/score_conv_0/weights/Initializer/random_uniform/shape"
  attr {
    key: "T"
    value {
      type: DT_INT32
    }
  }
  attr {
    key: "_class"
    value {
      list {
        s: "loc:@ConvOnlyResNet/score_conv_0/weights"
      }
    }
  }
  attr {
    key: "dtype"
    value {
      type: DT_FLOAT
    }
  }
  attr {
    key: "seed"
    value {
      i: 0
    }
  }
  attr {
    key: "seed2"
    value {
      i: 0
    }
  }
}
node {
  name: "ConvOnlyResNet/score_conv_0/weights/Initializer/random_uniform/sub"
  op: "Sub"
  input: "ConvOnlyResNet/score_conv_0/weights/Initializer/random_uniform/max"
  input: "ConvOnlyResNet/score_conv_0/weights/Initializer/random_uniform/min"
  attr {
    key: "T"
    value {
      type: DT_FLOAT
    }
  }
  attr {
    key: "_class"
    value {
      list {
        s: "loc:@ConvOnlyResNet/score_conv_0/weights"
      }
    }
  }
}
node {
  name: "ConvOnlyResNet/score_conv_0/weights/Initializer/random_uniform/mul"
  op: "Mul"
  input: "ConvOnlyResNet/score_conv_0/weights/Initializer/random_uniform/RandomUniform"
  input: "ConvOnlyResNet/score_conv_0/weights/Initializer/random_uniform/sub"
  attr {
    key: "T"
    value {
      type: DT_FLOAT
    }
  }
  attr {
    key: "_class"
    value {
      list {
        s: "loc:@ConvOnlyResNet/score_conv_0/weights"
      }
    }
  }
}
node {
  name: "ConvOnlyResNet/score_conv_0/weights/Initializer/random_uniform"
  op: "Add"
  input: "ConvOnlyResNet/score_conv_0/weights/Initializer/random_uniform/mul"
  input: "ConvOnlyResNet/score_conv_0/weights/Initializer/random_uniform/min"
  attr {
    key: "T"
    value {
      type: DT_FLOAT
    }
  }
  attr {
    key: "_class"
    value {
      list {
        s: "loc:@ConvOnlyResNet/score_conv_0/weights"
      }
    }
  }
}
node {
  name: "ConvOnlyResNet/score_conv_0/weights"
  op: "VariableV2"
  attr {
    key: "_class"
    value {
      list {
        s: "loc:@ConvOnlyResNet/score_conv_0/weights"
      }
    }
  }
  attr {
    key: "container"
    value {
      s: ""
    }
  }
  attr {
    key: "dtype"
    value {
      type: DT_FLOAT
    }
  }
  attr {
    key: "shape"
    value {
      shape {
        dim {
          size: 5
        }
        dim {
          size: 5
        }
        dim {
          size: 16
        }
        dim {
          size: 1
        }
      }
    }
  }
  attr {
    key: "shared_name"
    value {
      s: ""
    }
  }
}
node {
  name: "ConvOnlyResNet/score_conv_0/weights/Assign"
  op: "Assign"
  input: "ConvOnlyResNet/score_conv_0/weights"
  input: "ConvOnlyResNet/score_conv_0/weights/Initializer/random_uniform"
  attr {
    key: "T"
    value {
      type: DT_FLOAT
    }
  }
  attr {
    key: "_class"
    value {
      list {
        s: "loc:@ConvOnlyResNet/score_conv_0/weights"
      }
    }
  }
  attr {
    key: "use_locking"
    value {
      b: true
    }
  }
  attr {
    key: "validate_shape"
    value {
      b: true
    }
  }
}
node {
  name: "ConvOnlyResNet/score_conv_0/weights/read"
  op: "Identity"
  input: "ConvOnlyResNet/score_conv_0/weights"
…
  input: "SimpleDesc/bn1/moving_variance"
  input: "SimpleDesc/bn2/beta"
  input: "SimpleDesc/bn2/gamma"
  input: "SimpleDesc/bn2/moving_mean"
  input: "SimpleDesc/bn2/moving_variance"
  input: "SimpleDesc/bn3/beta"
  input: "SimpleDesc/bn3/gamma"
  input: "SimpleDesc/bn3/moving_mean"
  input: "SimpleDesc/bn3/moving_variance"
  input: "SimpleDesc/conv1/biases"
  input: "SimpleDesc/conv1/weights"
  input: "SimpleDesc/conv2/biases"
  input: "SimpleDesc/conv2/weights"
  input: "SimpleDesc/conv3/biases"
  input: "SimpleDesc/conv3/weights"
  input: "SimpleDesc/fc-bn1/beta"
  input: "SimpleDesc/fc-bn1/gamma"
  input: "SimpleDesc/fc-bn1/moving_mean"
  input: "SimpleDesc/fc-bn1/moving_variance"
  input: "SimpleDesc/fc1/biases"
  input: "SimpleDesc/fc1/weights"
  input: "SimpleDesc/fc2/biases"
  input: "SimpleDesc/fc2/weights"
  attr {
    key: "dtypes"
    value {
      list {
        type: DT_FLOAT
        type: DT_FLOAT
        type: DT_FLOAT
        type: DT_FLOAT
        type: DT_FLOAT
        type: DT_FLOAT
        type: DT_FLOAT
        type: DT_FLOAT
        type: DT_FLOAT
        type: DT_FLOAT
        type: DT_FLOAT
        type: DT_FLOAT
        type: DT_FLOAT
        type: DT_FLOAT
        type: DT_FLOAT
        type: DT_FLOAT
        type: DT_FLOAT
        type: DT_FLOAT
        type: DT_FLOAT
        type: DT_FLOAT
        type: DT_FLOAT
        type: DT_FLOAT
        type: DT_FLOAT
        type: DT_FLOAT
        type: DT_FLOAT
        type: DT_FLOAT
        type: DT_FLOAT
        type: DT_FLOAT
        type: DT_FLOAT
        type: DT_FLOAT
        type: DT_FLOAT
        type: DT_FLOAT
        type: DT_FLOAT
        type: DT_FLOAT
        type: DT_FLOAT
        type: DT_FLOAT
        type: DT_FLOAT
        type: DT_FLOAT
        type: DT_FLOAT
        type: DT_FLOAT
        type: DT_FLOAT
        type: DT_FLOAT
        type: DT_FLOAT
        type: DT_FLOAT
        type: DT_FLOAT
        type: DT_FLOAT
        type: DT_FLOAT
        type: DT_FLOAT
        type: DT_FLOAT
        type: DT_FLOAT
        type: DT_FLOAT
        type: DT_FLOAT
        type: DT_FLOAT
        type: DT_FLOAT
        type: DT_FLOAT
        type: DT_FLOAT
        type: DT_FLOAT
        type: DT_FLOAT
        type: DT_FLOAT
        type: DT_FLOAT
        type: DT_FLOAT
        type: DT_FLOAT
        type: DT_FLOAT
        type: DT_FLOAT
        type: DT_FLOAT
        type: DT_FLOAT
        type: DT_FLOAT
        type: DT_FLOAT
        type: DT_FLOAT
        type: DT_FLOAT
        type: DT_FLOAT
        type: DT_FLOAT
        type: DT_FLOAT
        type: DT_FLOAT
        type: DT_FLOAT
        type: DT_FLOAT
        type: DT_FLOAT
        type: DT_FLOAT
        type: DT_FLOAT
        type: DT_FLOAT
      }
    }
  }
}
node {
  name: "save/control_dependency"
  op: "Identity"
  input: "save/Const"
  input: "^save/SaveV2"
  attr {
    key: "T"
    value {
      type: DT_STRING
    }
  }
  attr {
    key: "_class"
    value {
      list {
        s: "loc:@save/Const"
      }
    }
  }
}
node {
  name: "save/RestoreV2/tensor_names"
  op: "Const"
  device: "/device:CPU:0"
  attr {
    key: "dtype"
    value {
      type: DT_STRING
    }
  }
  attr {
    key: "value"
    value {
      tensor {
        dtype: DT_STRING
        tensor_shape {
          dim {
            size: 80
          }
        }
        string_val: "ConvOnlyResNet/block-1/conv1/biases"
        string_val: "ConvOnlyResNet/block-1/conv1/weights"
        string_val: "ConvOnlyResNet/block-1/conv2/biases"
        string_val: "ConvOnlyResNet/block-1/conv2/weights"
        string_val: "ConvOnlyResNet/block-1/mid-bn/beta"
        string_val: "ConvOnlyResNet/block-1/mid-bn/gamma"
        string_val: "ConvOnlyResNet/block-1/mid-bn/moving_mean"
        string_val: "ConvOnlyResNet/block-1/mid-bn/moving_variance"
        string_val: "ConvOnlyResNet/block-1/pre-bn/beta"
        string_val: "ConvOnlyResNet/block-1/pre-bn/gamma"
        string_val: "ConvOnlyResNet/block-1/pre-bn/moving_mean"
        string_val: "ConvOnlyResNet/block-1/pre-bn/moving_variance"
        string_val: "ConvOnlyResNet/block-2/conv1/biases"
        string_val: "ConvOnlyResNet/block-2/conv1/weights"
        string_val: "ConvOnlyResNet/block-2/conv2/biases"
        string_val: "ConvOnlyResNet/block-2/conv2/weights"
        string_val: "ConvOnlyResNet/block-2/mid-bn/beta"
        string_val: "ConvOnlyResNet/block-2/mid-bn/gamma"
        string_val: "ConvOnlyResNet/block-2/mid-bn/moving_mean"
        string_val: "ConvOnlyResNet/block-2/mid-bn/moving_variance"
        string_val: "ConvOnlyResNet/block-2/pre-bn/beta"
        string_val: "ConvOnlyResNet/block-2/pre-bn/gamma"
        string_val: "ConvOnlyResNet/block-2/pre-bn/moving_mean"
        string_val: "ConvOnlyResNet/block-2/pre-bn/moving_variance"
        string_val: "ConvOnlyResNet/block-3/conv1/biases"
        string_val: "ConvOnlyResNet/block-3/conv1/weights"
        string_val: "ConvOnlyResNet/block-3/conv2/biases"
        string_val: "ConvOnlyResNet/block-3/conv2/weights"
        string_val: "ConvOnlyResNet/block-3/mid-bn/beta"
        string_val: "ConvOnlyResNet/block-3/mid-bn/gamma"
        string_val: "ConvOnlyResNet/block-3/mid-bn/moving_mean"
        string_val: "ConvOnlyResNet/block-3/mid-bn/moving_variance"
        string_val: "ConvOnlyResNet/block-3/pre-bn/beta"
        string_val: "ConvOnlyResNet/block-3/pre-bn/gamma"
        string_val: "ConvOnlyResNet/block-3/pre-bn/moving_mean"
        string_val: "ConvOnlyResNet/block-3/pre-bn/moving_variance"
        string_val: "ConvOnlyResNet/fin-bn/beta"
        string_val: "ConvOnlyResNet/fin-bn/gamma"
        string_val: "ConvOnlyResNet/fin-bn/moving_mean"
        string_val: "ConvOnlyResNet/fin-bn/moving_variance"
        string_val: "ConvOnlyResNet/init_conv/biases"
        string_val: "ConvOnlyResNet/init_conv/weights"
        string_val: "ConvOnlyResNet/ori_conv/biases"
        string_val: "ConvOnlyResNet/ori_conv/weights"
        string_val: "ConvOnlyResNet/score_conv_0/biases"
        string_val: "ConvOnlyResNet/score_conv_0/weights"
        string_val: "ConvOnlyResNet/score_conv_1/biases"
        string_val: "ConvOnlyResNet/score_conv_1/weights"
        string_val: "ConvOnlyResNet/score_conv_2/biases"
        string_val: "ConvOnlyResNet/score_conv_2/weights"
        string_val: "ConvOnlyResNet/score_conv_3/biases"
        string_val: "ConvOnlyResNet/score_conv_3/weights"
        string_val: "ConvOnlyResNet/score_conv_4/biases"
        string_val: "ConvOnlyResNet/score_conv_4/weights"
        string_val: "SimpleDesc/bn1/beta"
        string_val: "SimpleDesc/bn1/gamma"
        string_val: "SimpleDesc/bn1/moving_mean"
        string_val: "SimpleDesc/bn1/moving_variance"
        string_val: "SimpleDesc/bn2/beta"
        string_val: "SimpleDesc/bn2/gamma"
        string_val: "SimpleDesc/bn2/moving_mean"
        string_val: "SimpleDesc/bn2/moving_variance"
        string_val: "SimpleDesc/bn3/beta"
        string_val: "SimpleDesc/bn3/gamma"
        string_val: "SimpleDesc/bn3/moving_mean"
        string_val: "SimpleDesc/bn3/moving_variance"
        string_val: "SimpleDesc/conv1/biases"
        string_val: "SimpleDesc/conv1/weights"
        string_val: "SimpleDesc/conv2/biases"
        string_val: "SimpleDesc/conv2/weights"
        string_val: "SimpleDesc/conv3/biases"
        string_val: "SimpleDesc/conv3/weights"
        string_val: "SimpleDesc/fc-bn1/beta"
        string_val: "SimpleDesc/fc-bn1/gamma"
        string_val: "SimpleDesc/fc-bn1/moving_mean"
        string_val: "SimpleDesc/fc-bn1/moving_variance"
        string_val: "SimpleDesc/fc1/biases"
        string_val: "SimpleDesc/fc1/weights"
        string_val: "SimpleDesc/fc2/biases"
        string_val: "SimpleDesc/fc2/weights"
      }
    }
  }
}
node {
  name: "save/RestoreV2/shape_and_slices"
  op: "Const"
  device: "/device:CPU:0"
  attr {
    key: "dtype"
    value {
      type: DT_STRING
    }
  }
  attr {
    key: "value"
    value {
      tensor {
        dtype: DT_STRING
        tensor_shape {
          dim {
            size: 80
          }
        }
        string_val: ""
        string_val: ""
        string_val: ""
        string_val: ""
        string_val: ""
        string_val: ""
        string_val: ""
        string_val: ""
        string_val: ""
        string_val: ""
        string_val: ""
        string_val: ""
        string_val: ""
        string_val: ""
        string_val: ""
        string_val: ""
        string_val: ""
        string_val: ""
        string_val: ""
        string_val: ""
        string_val: ""
        string_val: ""
        string_val: ""
        string_val: ""
        string_val: ""
        string_val: ""
        string_val: ""
        string_val: ""
        string_val: ""
        string_val: ""
        string_val: ""
        string_val: ""
        string_val: ""
        string_val: ""
        string_val: ""
        string_val: ""
        string_val: ""
        string_val: ""
        string_val: ""
        string_val: ""
        string_val: ""
        string_val: ""
        string_val: ""
        string_val: ""
        string_val: ""
        string_val: ""
        string_val: ""
        string_val: ""
        string_val: ""
        string_val: ""
        string_val: ""
        string_val: ""
        string_val: ""
        string_val: ""
        string_val: ""
        string_val: ""
        string_val: ""
        string_val: ""
        string_val: ""
        string_val: ""
        string_val: ""
        string_val: ""
        string_val: ""
        string_val: ""
        string_val: ""
        string_val: ""
        string_val: ""
        string_val: ""
        string_val: ""
        string_val: ""
        string_val: ""
        string_val: ""
        string_val: ""
        string_val: ""
        string_val: ""
        string_val: ""
        string_val: ""
        string_val: ""
        string_val: ""
        string_val: ""
      }
    }
  }
}
node {
  name: "save/RestoreV2"
  op: "RestoreV2"
  input: "save/Const"
  input: "save/RestoreV2/tensor_names"
  input: "save/RestoreV2/shape_and_slices"
  device: "/device:CPU:0"
  attr {
    key: "dtypes"
    value {
      list {
        type: DT_FLOAT
        type: DT_FLOAT
        type: DT_FLOAT
        type: DT_FLOAT
        type: DT_FLOAT
        type: DT_FLOAT
        type: DT_FLOAT
        type: DT_FLOAT
        type: DT_FLOAT
        type: DT_FLOAT
        type: DT_FLOAT
        type: DT_FLOAT
        type: DT_FLOAT
        type: DT_FLOAT
        type: DT_FLOAT
        type: DT_FLOAT
        type: DT_FLOAT
        type: DT_FLOAT
        type: DT_FLOAT
        type: DT_FLOAT
        type: DT_FLOAT
        type: DT_FLOAT
        type: DT_FLOAT
        type: DT_FLOAT
        type: DT_FLOAT
        type: DT_FLOAT
        type: DT_FLOAT
        type: DT_FLOAT
        type: DT_FLOAT
        type: DT_FLOAT
        type: DT_FLOAT
        type: DT_FLOAT
        type: DT_FLOAT
        type: DT_FLOAT
        type: DT_FLOAT
        type: DT_FLOAT
        type: DT_FLOAT
        type: DT_FLOAT
        type: DT_FLOAT
        type: DT_FLOAT
        type: DT_FLOAT
        type: DT_FLOAT
        type: DT_FLOAT
        type: DT_FLOAT
        type: DT_FLOAT
        type: DT_FLOAT
        type: DT_FLOAT
        type: DT_FLOAT
        type: DT_FLOAT
        type: DT_FLOAT
        type: DT_FLOAT
        type: DT_FLOAT
        type: DT_FLOAT
        type: DT_FLOAT
        type: DT_FLOAT
        type: DT_FLOAT
        type: DT_FLOAT
        type: DT_FLOAT
        type: DT_FLOAT
        type: DT_FLOAT
        type: DT_FLOAT
        type: DT_FLOAT
        type: DT_FLOAT
        type: DT_FLOAT
        type: DT_FLOAT
        type: DT_FLOAT
        type: DT_FLOAT
        type: DT_FLOAT
        type: DT_FLOAT
        type: DT_FLOAT
        type: DT_FLOAT
        type: DT_FLOAT
        type: DT_FLOAT
        type: DT_FLOAT
        type: DT_FLOAT
        type: DT_FLOAT
        type: DT_FLOAT
        type: DT_FLOAT
        type: DT_FLOAT
        type: DT_FLOAT
      }
    }
  }
}
node {
  name: "save/Assign"
  op: "Assign"
  input: "ConvOnlyResNet/block-1/conv1/biases"
  input: "save/RestoreV2"
  attr {
    key: "T"
    value {
      type: DT_FLOAT
    }
  }
  attr {
    key: "_class"
    value {
      list {
        s: "loc:@ConvOnlyResNet/block-1/conv1/biases"
      }
    }
  }
  attr {
    key: "use_locking"
    value {
      b: true
    }
  }
  attr {
    key: "validate_shape"
    value {
      b: true
    }
  }
}
node {
  name: "save/Assign_1"
  op: "Assign"
  input: "ConvOnlyResNet/block-1/conv1/weights"
  input: "save/RestoreV2:1"
  attr {
    key: "T"
    value {
      type: DT_FLOAT
    }
  }
  attr {
    key: "_class"
    value {
      list {
        s: "loc:@ConvOnlyResNet/block-1/conv1/weights"
      }
    }
  }
  attr {
    key: "use_locking"
    value {
      b: true
    }
  }
  attr {
    key: "validate_shape"
    value {
      b: true
    }
  }
}
node {
  name: "save/Assign_2"
  op: "Assign"
  input: "ConvOnlyResNet/block-1/conv2/biases"
  input: "save/RestoreV2:2"
  attr {
    key: "T"
    value {
      type: DT_FLOAT
    }
  }
  attr {
    key: "_class"
    value {
      list {
        s: "loc:@ConvOnlyResNet/block-1/conv2/biases"
      }
    }
  }
  attr {
    key: "use_locking"
    value {
      b: true
    }
  }
  attr {
    key: "validate_shape"
    value {
      b: true
    }
  }
}
node {
  name: "save/Assign_3"
  op: "Assign"
  input: "ConvOnlyResNet/block-1/conv2/weights"
  input: "save/RestoreV2:3"
  attr {
    key: "T"
    value {
      type: DT_FLOAT
    }
  }
  attr {
    key: "_class"
    value {
      list {
        s: "loc:@ConvOnlyResNet/block-1/conv2/weights"
      }
    }
  }
  attr {
    key: "use_locking"
    value {
      b: true
    }
  }
  attr {
    key: "validate_shape"
    value {
      b: true
    }
  }
}
node {
  name: "save/Assign_4"
  op: "Assign"
  input: "ConvOnlyResNet/block-1/mid-bn/beta"
  input: "save/RestoreV2:4"
  attr {
    key: "T"
    value {
      type: DT_FLOAT
    }
  }
  attr {
    key: "_class"
    value {
      list {
        s: "loc:@ConvOnlyResNet/block-1/mid-bn/beta"
      }
    }
  }
  attr {
    key: "use_locking"
    value {
      b: true
    }
  }
  attr {
    key: "validate_shape"
    value {
      b: true
    }
  }
}
node {
  name: "save/Assign_5"
  op: "Assign"
  input: "ConvOnlyResNet/block-1/mid-bn/gamma"
  input: "save/RestoreV2:5"
  attr {
    key: "T"
    value {
      type: DT_FLOAT
    }
  }
  attr {
    key: "_class"
    value {
      list {
        s: "loc:@ConvOnlyResNet/block-1/mid-bn/gamma"
      }
    }
  }
  attr {
    key: "use_locking"
    value {
      b: true
    }
  }
  attr {
    key: "validate_shape"
    value {
      b: true
    }
  }
}
node {
  name: "save/Assign_6"
  op: "Assign"
  input: "ConvOnlyResNet/block-1/mid-bn/moving_mean"
  input: "save/RestoreV2:6"
  attr {
    key: "T"
    value {
      type: DT_FLOAT
    }
  }
  attr {
    key: "_class"
    value {
      list {
        s: "loc:@ConvOnlyResNet/block-1/mid-bn/moving_mean"
      }
    }
  }
  attr {
    key: "use_locking"
    value {
      b: true
    }
  }
  attr {
    key: "validate_shape"
    value {
      b: true
    }
  }
}
node {
  name: "save/Assign_7"
  op: "Assign"
  input: "ConvOnlyResNet/block-1/mid-bn/moving_variance"
  input: "save/RestoreV2:7"
  attr {
    key: "T"
    value {
      type: DT_FLOAT
    }
  }
  attr {
    key: "_class"
    value {
      list {
        s: "loc:@ConvOnlyResNet/block-1/mid-bn/moving_variance"
      }
    }
  }
  attr {
    key: "use_locking"
    value {
      b: true
    }
  }
  attr {
    key: "validate_shape"
    value {
      b: true
    }
  }
}
node {
  name: "save/Assign_8"
  op: "Assign"
  input: "ConvOnlyResNet/block-1/pre-bn/beta"
  input: "save/RestoreV2:8"
  attr {
    key: "T"
    value {
      type: DT_FLOAT
    }
  }
  attr {
    key: "_class"
    value {
      list {
        s: "loc:@ConvOnlyResNet/block-1/pre-bn/beta"
      }
    }
  }
  attr {
    key: "use_locking"
    value {
      b: true
    }
  }
  attr {
    key: "validate_shape"
    value {
      b: true
    }
  }
}
node {
  name: "save/Assign_9"
  op: "Assign"
  input: "ConvOnlyResNet/block-1/pre-bn/gamma"
  input: "save/RestoreV2:9"
  attr {
    key: "T"
    value {
      type: DT_FLOAT
    }
  }
  attr {
    key: "_class"
    value {
      list {
        s: "loc:@ConvOnlyResNet/block-1/pre-bn/gamma"
      }
    }
  }
  attr {
    key: "use_locking"
    value {
      b: true
    }
  }
  attr {
    key: "validate_shape"
    value {
      b: true
    }
  }
}
node {
  name: "save/Assign_10"
  op: "Assign"
  input: "ConvOnlyResNet/block-1/pre-bn/moving_mean"
  input: "save/RestoreV2:10"
  attr {
    key: "T"
    value {
      type: DT_FLOAT
    }
  }
  attr {
    key: "_class"
    value {
      list {
        s: "loc:@ConvOnlyResNet/block-1/pre-bn/moving_mean"
      }
    }
  }
  attr {
    key: "use_locking"
    value {
      b: true
    }
  }
  attr {
    key: "validate_shape"
    value {
      b: true
    }
  }
}
node {
  name: "save/Assign_11"
  op: "Assign"
  input: "ConvOnlyResNet/block-1/pre-bn/moving_variance"
  input: "save/RestoreV2:11"
  attr {
    key: "T"
    value {
      type: DT_FLOAT
    }
  }
  attr {
    key: "_class"
    value {
      list {
        s: "loc:@ConvOnlyResNet/block-1/pre-bn/moving_variance"
      }
    }
  }
  attr {
    key: "use_locking"
    value {
      b: true
    }
  }
  attr {
    key: "validate_shape"
    value {
      b: true
    }
  }
}
node {
  name: "save/Assign_12"
  op: "Assign"
  input: "ConvOnlyResNet/block-2/conv1/biases"
  input: "save/RestoreV2:12"
  attr {
    key: "T"
    value {
      type: DT_FLOAT
    }
  }
  attr {
    key: "_class"
    value {
      list {
        s: "loc:@ConvOnlyResNet/block-2/conv1/biases"
      }
    }
  }
  attr {
    key: "use_locking"
    value {
      b: true
    }
  }
  attr {
    key: "validate_shape"
    value {
      b: true
    }
  }
}
node {
  name: "save/Assign_13"
  op: "Assign"
  input: "ConvOnlyResNet/block-2/conv1/weights"
  input: "save/RestoreV2:13"
  attr {
    key: "T"
    value {
      type: DT_FLOAT
    }
  }
  attr {
    key: "_class"
    value {
      list {
        s: "loc:@ConvOnlyResNet/block-2/conv1/weights"
      }
    }
  }
  attr {
    key: "use_locking"
    value {
      b: true
    }
  }
  attr {
    key: "validate_shape"
    value {
      b: true
    }
  }
}
node {
  name: "save/Assign_14"
  op: "Assign"
  input: "ConvOnlyResNet/block-2/conv2/biases"
  input: "save/RestoreV2:14"
  attr {
    key: "T"
    value {
      type: DT_FLOAT
    }
  }
  attr {
    key: "_class"
    value {
      list {
        s: "loc:@ConvOnlyResNet/block-2/conv2/biases"
      }
    }
  }
  attr {
    key: "use_locking"
    value {
      b: true
    }
  }
  attr {
    key: "validate_shape"
    value {
      b: true
    }
  }
}
node {
  name: "save/Assign_15"
  op: "Assign"
  input: "ConvOnlyResNet/block-2/conv2/weights"
  input: "save/RestoreV2:15"
  attr {
    key: "T"
    value {
      type: DT_FLOAT
    }
  }
  attr {
    key: "_class"
    value {
      list {
        s: "loc:@ConvOnlyResNet/block-2/conv2/weights"
      }
    }
  }
  attr {
    key: "use_locking"
    value {
      b: true
    }
  }
  attr {
    key: "validate_shape"
    value {
      b: true
    }
  }
}
node {
  name: "save/Assign_16"
  op: "Assign"
  input: "ConvOnlyResNet/block-2/mid-bn/beta"
  input: "save/RestoreV2:16"
  attr {
    key: "T"
    value {
      type: DT_FLOAT
    }
  }
  attr {
    key: "_class"
    value {
      list {
        s: "loc:@ConvOnlyResNet/block-2/mid-bn/beta"
      }
    }
  }
  attr {
    key: "use_locking"
    value {
      b: true
    }
  }
  attr {
    key: "validate_shape"
    value {
      b: true
    }
  }
}
node {
  name: "save/Assign_17"
  op: "Assign"
  input: "ConvOnlyResNet/block-2/mid-bn/gamma"
  input: "save/RestoreV2:17"
  attr {
    key: "T"
    value {
      type: DT_FLOAT
    }
  }
  attr {
    key: "_class"
    value {
      list {
        s: "loc:@ConvOnlyResNet/block-2/mid-bn/gamma"
      }
    }
  }
  attr {
    key: "use_locking"
    value {
      b: true
    }
  }
  attr {
    key: "validate_shape"
    value {
      b: true
    }
  }
}
node {
  name: "save/Assign_18"
  op: "Assign"
  input: "ConvOnlyResNet/block-2/mid-bn/moving_mean"
  input: "save/RestoreV2:18"
  attr {
    key: "T"
    value {
      type: DT_FLOAT
    }
  }
  attr {
    key: "_class"
    value {
      list {
        s: "loc:@ConvOnlyResNet/block-2/mid-bn/moving_mean"
      }
    }
  }
  attr {
    key: "use_locking"
    value {
      b: true
    }
  }
  attr {
    key: "validate_shape"
    value {
      b: true
    }
  }
}
node {
  name: "save/Assign_19"
  op: "Assign"
  input: "ConvOnlyResNet/block-2/mid-bn/moving_variance"
  input: "save/RestoreV2:19"
  attr {
    key: "T"
    value {
      type: DT_FLOAT
    }
  }
  attr {
    key: "_class"
    value {
      list {
        s: "loc:@ConvOnlyResNet/block-2/mid-bn/moving_variance"
      }
    }
  }
  attr {
    key: "use_locking"
    value {
      b: true
    }
  }
  attr {
    key: "validate_shape"
    value {
      b: true
    }
  }
}
node {
  name: "save/Assign_20"
  op: "Assign"
  input: "ConvOnlyResNet/block-2/pre-bn/beta"
  input: "save/RestoreV2:20"
  attr {
    key: "T"
    value {
      type: DT_FLOAT
    }
  }
  attr {
    key: "_class"
    value {
      list {
        s: "loc:@ConvOnlyResNet/block-2/pre-bn/beta"
      }
    }
  }
  attr {
    key: "use_locking"
    value {
      b: true
    }
  }
  attr {
    key: "validate_shape"
    value {
      b: true
    }
  }
}
node {
  name: "save/Assign_21"
  op: "Assign"
  input: "ConvOnlyResNet/block-2/pre-bn/gamma"
  input: "save/RestoreV2:21"
  attr {
    key: "T"
    value {
      type: DT_FLOAT
    }
  }
  attr {
    key: "_class"
    value {
      list {
        s: "loc:@ConvOnlyResNet/block-2/pre-bn/gamma"
      }
    }
  }
  attr {
    key: "use_locking"
    value {
      b: true
    }
  }
  attr {
    key: "validate_shape"
    value {
      b: true
    }
  }
}
node {
  name: "save/Assign_22"
  op: "Assign"
  input: "ConvOnlyResNet/block-2/pre-bn/moving_mean"
  input: "save/RestoreV2:22"
  attr {
    key: "T"
    value {
      type: DT_FLOAT
    }
  }
  attr {
    key: "_class"
    value {
      list {
        s: "loc:@ConvOnlyResNet/block-2/pre-bn/moving_mean"
      }
    }
  }
  attr {
    key: "use_locking"
    value {
      b: true
    }
  }
  attr {
    key: "validate_shape"
    value {
      b: true
    }
  }
}
node {
  name: "save/Assign_23"
  op: "Assign"
  input: "ConvOnlyResNet/block-2/pre-bn/moving_variance"
  input: "save/RestoreV2:23"
  attr {
    key: "T"
    value {
      type: DT_FLOAT
    }
  }
  attr {
    key: "_class"
    value {
      list {
        s: "loc:@ConvOnlyResNet/block-2/pre-bn/moving_variance"
      }
    }
  }
  attr {
    key: "use_locking"
    value {
      b: true
    }
  }
  attr {
    key: "validate_shape"
    value {
      b: true
    }
  }
}
node {
  name: "save/Assign_24"
  op: "Assign"
  input: "ConvOnlyResNet/block-3/conv1/biases"
  input: "save/RestoreV2:24"
  attr {
    key: "T"
    value {
      type: DT_FLOAT
    }
  }
  attr {
    key: "_class"
    value {
      list {
        s: "loc:@ConvOnlyResNet/block-3/conv1/biases"
      }
    }
  }
  attr {
    key: "use_locking"
    value {
      b: true
    }
  }
  attr {
    key: "validate_shape"
    value {
      b: true
    }
  }
}
node {
  name: "save/Assign_25"
  op: "Assign"
  input: "ConvOnlyResNet/block-3/conv1/weights"
  input: "save/RestoreV2:25"
  attr {
    key: "T"
    value {
      type: DT_FLOAT
    }
  }
  attr {
    key: "_class"
    value {
      list {
        s: "loc:@ConvOnlyResNet/block-3/conv1/weights"
      }
    }
  }
  attr {
    key: "use_locking"
    value {
      b: true
    }
  }
  attr {
    key: "validate_shape"
    value {
      b: true
    }
  }
}
node {
  name: "save/Assign_26"
  op: "Assign"
  input: "ConvOnlyResNet/block-3/conv2/biases"
  input: "save/RestoreV2:26"
  attr {
    key: "T"
    value {
      type: DT_FLOAT
    }
  }
  attr {
    key: "_class"
    value {
      list {
        s: "loc:@ConvOnlyResNet/block-3/conv2/biases"
      }
    }
  }
  attr {
    key: "use_locking"
    value {
      b: true
    }
  }
  attr {
    key: "validate_shape"
    value {
      b: true
    }
  }
}
node {
  name: "save/Assign_27"
  op: "Assign"
  input: "ConvOnlyResNet/block-3/conv2/weights"
  input: "save/RestoreV2:27"
  attr {
    key: "T"
    value {
      type: DT_FLOAT
    }
  }
  attr {
    key: "_class"
    value {
      list {
        s: "loc:@ConvOnlyResNet/block-3/conv2/weights"
      }
    }
  }
  attr {
    key: "use_locking"
    value {
      b: true
    }
  }
  attr {
    key: "validate_shape"
    value {
      b: true
    }
  }
}
node {
  name: "save/Assign_28"
  op: "Assign"
  input: "ConvOnlyResNet/block-3/mid-bn/beta"
  input: "save/RestoreV2:28"
  attr {
    key: "T"
    value {
      type: DT_FLOAT
    }
  }
  attr {
    key: "_class"
    value {
      list {
        s: "loc:@ConvOnlyResNet/block-3/mid-bn/beta"
      }
    }
  }
  attr {
    key: "use_locking"
    value {
      b: true
    }
  }
  attr {
    key: "validate_shape"
    value {
      b: true
    }
  }
}
node {
  name: "save/Assign_29"
  op: "Assign"
  input: "ConvOnlyResNet/block-3/mid-bn/gamma"
  input: "save/RestoreV2:29"
  attr {
    key: "T"
    value {
      type: DT_FLOAT
    }
  }
  attr {
    key: "_class"
    value {
      list {
        s: "loc:@ConvOnlyResNet/block-3/mid-bn/gamma"
      }
    }
  }
  attr {
    key: "use_locking"
    value {
      b: true
    }
  }
  attr {
    key: "validate_shape"
    value {
      b: true
    }
  }
}
node {
  name: "save/Assign_30"
  op: "Assign"
  input: "ConvOnlyResNet/block-3/mid-bn/moving_mean"
  input: "save/RestoreV2:30"
  attr {
    key: "T"
    value {
      type: DT_FLOAT
    }
  }
  attr {
    key: "_class"
    value {
      list {
        s: "loc:@ConvOnlyResNet/block-3/mid-bn/moving_mean"
      }
    }
  }
  attr {
    key: "use_locking"
    value {
      b: true
    }
  }
  attr {
    key: "validate_shape"
    value {
      b: true
    }
  }
}
node {
  name: "save/Assign_31"
  op: "Assign"
  input: "ConvOnlyResNet/block-3/mid-bn/moving_variance"
  input: "save/RestoreV2:31"
  attr {
    key: "T"
    value {
      type: DT_FLOAT
    }
  }
  attr {
    key: "_class"
    value {
      list {
        s: "loc:@ConvOnlyResNet/block-3/mid-bn/moving_variance"
      }
    }
  }
  attr {
    key: "use_locking"
    value {
      b: true
    }
  }
  attr {
    key: "validate_shape"
    value {
      b: true
    }
  }
}
node {
  name: "save/Assign_32"
  op: "Assign"
  input: "ConvOnlyResNet/block-3/pre-bn/beta"
  input: "save/RestoreV2:32"
  attr {
    key: "T"
    value {
      type: DT_FLOAT
    }
  }
  attr {
    key: "_class"
    value {
      list {
        s: "loc:@ConvOnlyResNet/block-3/pre-bn/beta"
      }
    }
  }
  attr {
    key: "use_locking"
    value {
      b: true
    }
  }
  attr {
    key: "validate_shape"
    value {
      b: true
    }
  }
}
node {
  name: "save/Assign_33"
  op: "Assign"
  input: "ConvOnlyResNet/block-3/pre-bn/gamma"
  input: "save/RestoreV2:33"
  attr {
    key: "T"
    value {
      type: DT_FLOAT
    }
  }
  attr {
    key: "_class"
    value {
      list {
        s: "loc:@ConvOnlyResNet/block-3/pre-bn/gamma"
      }
    }
  }
  attr {
    key: "use_locking"
    value {
      b: true
    }
  }
  attr {
    key: "validate_shape"
    value {
      b: true
    }
  }
}
node {
  name: "save/Assign_34"
  op: "Assign"
  input: "ConvOnlyResNet/block-3/pre-bn/moving_mean"
  input: "save/RestoreV2:34"
  attr {
    key: "T"
    value {
      type: DT_FLOAT
    }
  }
  attr {
    key: "_class"
    value {
      list {
        s: "loc:@ConvOnlyResNet/block-3/pre-bn/moving_mean"
      }
    }
  }
  attr {
    key: "use_locking"
    value {
      b: true
    }
  }
  attr {
    key: "validate_shape"
    value {
      b: true
    }
  }
}
node {
  name: "save/Assign_35"
  op: "Assign"
  input: "ConvOnlyResNet/block-3/pre-bn/moving_variance"
  input: "save/RestoreV2:35"
  attr {
    key: "T"
    value {
      type: DT_FLOAT
    }
  }
  attr {
    key: "_class"
    value {
      list {
        s: "loc:@ConvOnlyResNet/block-3/pre-bn/moving_variance"
      }
    }
  }
  attr {
    key: "use_locking"
    value {
      b: true
    }
  }
  attr {
    key: "validate_shape"
    value {
      b: true
    }
  }
}
node {
  name: "save/Assign_36"
  op: "Assign"
  input: "ConvOnlyResNet/fin-bn/beta"
  input: "save/RestoreV2:36"
  attr {
    key: "T"
    value {
      type: DT_FLOAT
    }
  }
  attr {
    key: "_class"
    value {
      list {
        s: "loc:@ConvOnlyResNet/fin-bn/beta"
      }
    }
  }
  attr {
    key: "use_locking"
    value {
      b: true
    }
  }
  attr {
    key: "validate_shape"
    value {
      b: true
    }
  }
}
node {
  name: "save/Assign_37"
  op: "Assign"
  input: "ConvOnlyResNet/fin-bn/gamma"
  input: "save/RestoreV2:37"
  attr {
    key: "T"
    value {
      type: DT_FLOAT
    }
  }
  attr {
    key: "_class"
    value {
      list {
        s: "loc:@ConvOnlyResNet/fin-bn/gamma"
      }
    }
  }
  attr {
    key: "use_locking"
    value {
      b: true
    }
  }
  attr {
    key: "validate_shape"
    value {
      b: true
    }
  }
}
node {
  name: "save/Assign_38"
  op: "Assign"
  input: "ConvOnlyResNet/fin-bn/moving_mean"
  input: "save/RestoreV2:38"
  attr {
    key: "T"
    value {
      type: DT_FLOAT
    }
  }
  attr {
    key: "_class"
    value {
      list {
        s: "loc:@ConvOnlyResNet/fin-bn/moving_mean"
      }
    }
  }
  attr {
    key: "use_locking"
    value {
      b: true
    }
  }
  attr {
    key: "validate_shape"
    value {
      b: true
    }
  }
}
node {
  name: "save/Assign_39"
  op: "Assign"
  input: "ConvOnlyResNet/fin-bn/moving_variance"
  input: "save/RestoreV2:39"
  attr {
    key: "T"
    value {
      type: DT_FLOAT
    }
  }
  attr {
    key: "_class"
    value {
      list {
        s: "loc:@ConvOnlyResNet/fin-bn/moving_variance"
      }
    }
  }
  attr {
    key: "use_locking"
    value {
      b: true
    }
  }
  attr {
    key: "validate_shape"
    value {
      b: true
    }
  }
}
node {
  name: "save/Assign_40"
  op: "Assign"
  input: "ConvOnlyResNet/init_conv/biases"
  input: "save/RestoreV2:40"
  attr {
    key: "T"
    value {
      type: DT_FLOAT
    }
  }
  attr {
    key: "_class"
    value {
      list {
        s: "loc:@ConvOnlyResNet/init_conv/biases"
      }
    }
  }
  attr {
    key: "use_locking"
    value {
      b: true
    }
  }
  attr {
    key: "validate_shape"
    value {
      b: true
    }
  }
}
node {
  name: "save/Assign_41"
  op: "Assign"
  input: "ConvOnlyResNet/init_conv/weights"
  input: "save/RestoreV2:41"
  attr {
    key: "T"
    value {
      type: DT_FLOAT
    }
  }
  attr {
    key: "_class"
    value {
      list {
        s: "loc:@ConvOnlyResNet/init_conv/weights"
      }
    }
  }
  attr {
    key: "use_locking"
    value {
      b: true
    }
  }
  attr {
    key: "validate_shape"
    value {
      b: true
    }
  }
}
node {
  name: "save/Assign_42"
  op: "Assign"
  input: "ConvOnlyResNet/ori_conv/biases"
  input: "save/RestoreV2:42"
  attr {
    key: "T"
    value {
      type: DT_FLOAT
    }
  }
  attr {
    key: "_class"
    value {
      list {
        s: "loc:@ConvOnlyResNet/ori_conv/biases"
      }
    }
  }
  attr {
    key: "use_locking"
    value {
      b: true
    }
  }
  attr {
    key: "validate_shape"
    value {
      b: true
    }
  }
}
node {
  name: "save/Assign_43"
  op: "Assign"
  input: "ConvOnlyResNet/ori_conv/weights"
  input: "save/RestoreV2:43"
  attr {
    key: "T"
    value {
      type: DT_FLOAT
    }
  }
  attr {
    key: "_class"
    value {
      list {
        s: "loc:@ConvOnlyResNet/ori_conv/weights"
      }
    }
  }
  attr {
    key: "use_locking"
    value {
      b: true
    }
  }
  attr {
    key: "validate_shape"
    value {
      b: true
    }
  }
}
node {
  name: "save/Assign_44"
  op: "Assign"
  input: "ConvOnlyResNet/score_conv_0/biases"
  input: "save/RestoreV2:44"
  attr {
    key: "T"
    value {
      type: DT_FLOAT
    }
  }
  attr {
    key: "_class"
    value {
      list {
        s: "loc:@ConvOnlyResNet/score_conv_0/biases"
      }
    }
  }
  attr {
    key: "use_locking"
    value {
      b: true
    }
  }
  attr {
    key: "validate_shape"
    value {
      b: true
    }
  }
}
node {
  name: "save/Assign_45"
  op: "Assign"
  input: "ConvOnlyResNet/score_conv_0/weights"
  input: "save/RestoreV2:45"
  attr {
    key: "T"
    value {
      type: DT_FLOAT
    }
  }
  attr {
    key: "_class"
    value {
      list {
        s: "loc:@ConvOnlyResNet/score_conv_0/weights"
      }
    }
  }
  attr {
    key: "use_locking"
    value {
      b: true
    }
  }
  attr {
    key: "validate_shape"
    value {
      b: true
    }
  }
}
node {
  name: "save/Assign_46"
  op: "Assign"
  input: "ConvOnlyResNet/score_conv_1/biases"
  input: "save/RestoreV2:46"
  attr {
    key: "T"
    value {
      type: DT_FLOAT
    }
  }
  attr {
    key: "_class"
    value {
      list {
        s: "loc:@ConvOnlyResNet/score_conv_1/biases"
      }
    }
  }
  attr {
    key: "use_locking"
    value {
      b: true
    }
  }
  attr {
    key: "validate_shape"
    value {
      b: true
    }
  }
}
node {
  name: "save/Assign_47"
  op: "Assign"
  input: "ConvOnlyResNet/score_conv_1/weights"
  input: "save/RestoreV2:47"
  attr {
    key: "T"
    value {
      type: DT_FLOAT
    }
  }
  attr {
    key: "_class"
    value {
      list {
        s: "loc:@ConvOnlyResNet/score_conv_1/weights"
      }
    }
  }
  attr {
    key: "use_locking"
    value {
      b: true
    }
  }
  attr {
    key: "validate_shape"
    value {
      b: true
    }
  }
}
node {
  name: "save/Assign_48"
  op: "Assign"
  input: "ConvOnlyResNet/score_conv_2/biases"
  input: "save/RestoreV2:48"
  attr {
    key: "T"
    value {
      type: DT_FLOAT
    }
  }
  attr {
    key: "_class"
    value {
      list {
        s: "loc:@ConvOnlyResNet/score_conv_2/biases"
      }
    }
  }
  attr {
    key: "use_locking"
    value {
      b: true
    }
  }
  attr {
    key: "validate_shape"
    value {
      b: true
    }
  }
}
node {
  name: "save/Assign_49"
  op: "Assign"
  input: "ConvOnlyResNet/score_conv_2/weights"
  input: "save/RestoreV2:49"
  attr {
    key: "T"
    value {
      type: DT_FLOAT
    }
  }
  attr {
    key: "_class"
    value {
      list {
        s: "loc:@ConvOnlyResNet/score_conv_2/weights"
      }
    }
  }
  attr {
    key: "use_locking"
    value {
      b: true
    }
  }
  attr {
    key: "validate_shape"
    value {
      b: true
    }
  }
}
node {
  name: "save/Assign_50"
  op: "Assign"
  input: "ConvOnlyResNet/score_conv_3/biases"
  input: "save/RestoreV2:50"
  attr {
    key: "T"
    value {
      type: DT_FLOAT
    }
  }
  attr {
    key: "_class"
    value {
      list {
        s: "loc:@ConvOnlyResNet/score_conv_3/biases"
      }
    }
  }
  attr {
    key: "use_locking"
    value {
      b: true
    }
  }
  attr {
    key: "validate_shape"
    value {
      b: true
    }
  }
}
node {
  name: "save/Assign_51"
  op: "Assign"
  input: "ConvOnlyResNet/score_conv_3/weights"
  input: "save/RestoreV2:51"
  attr {
    key: "T"
    value {
      type: DT_FLOAT
    }
  }
  attr {
    key: "_class"
    value {
      list {
        s: "loc:@ConvOnlyResNet/score_conv_3/weights"
      }
    }
  }
  attr {
    key: "use_locking"
    value {
      b: true
    }
  }
  attr {
    key: "validate_shape"
    value {
      b: true
    }
  }
}
node {
  name: "save/Assign_52"
  op: "Assign"
  input: "ConvOnlyResNet/score_conv_4/biases"
  input: "save/RestoreV2:52"
  attr {
    key: "T"
    value {
      type: DT_FLOAT
    }
  }
  attr {
    key: "_class"
    value {
      list {
        s: "loc:@ConvOnlyResNet/score_conv_4/biases"
      }
    }
  }
  attr {
    key: "use_locking"
    value {
      b: true
    }
  }
  attr {
    key: "validate_shape"
    value {
      b: true
    }
  }
}
node {
  name: "save/Assign_53"
  op: "Assign"
  input: "ConvOnlyResNet/score_conv_4/weights"
  input: "save/RestoreV2:53"
  attr {
    key: "T"
    value {
      type: DT_FLOAT
    }
  }
  attr {
    key: "_class"
    value {
      list {
        s: "loc:@ConvOnlyResNet/score_conv_4/weights"
      }
    }
  }
  attr {
    key: "use_locking"
    value {
      b: true
    }
  }
  attr {
    key: "validate_shape"
    value {
      b: true
    }
  }
}
node {
  name: "save/Assign_54"
  op: "Assign"
  input: "SimpleDesc/bn1/beta"
  input: "save/RestoreV2:54"
  attr {
    key: "T"
    value {
      type: DT_FLOAT
    }
  }
  attr {
    key: "_class"
    value {
      list {
        s: "loc:@SimpleDesc/bn1/beta"
      }
    }
  }
  attr {
    key: "use_locking"
    value {
      b: true
    }
  }
  attr {
    key: "validate_shape"
    value {
      b: true
    }
  }
}
node {
  name: "save/Assign_55"
  op: "Assign"
  input: "SimpleDesc/bn1/gamma"
  input: "save/RestoreV2:55"
  attr {
    key: "T"
    value {
      type: DT_FLOAT
    }
  }
  attr {
    key: "_class"
    value {
      list {
        s: "loc:@SimpleDesc/bn1/gamma"
      }
    }
  }
  attr {
    key: "use_locking"
    value {
      b: true
    }
  }
  attr {
    key: "validate_shape"
    value {
      b: true
    }
  }
}
node {
  name: "save/Assign_56"
  op: "Assign"
  input: "SimpleDesc/bn1/moving_mean"
  input: "save/RestoreV2:56"
  attr {
    key: "T"
    value {
      type: DT_FLOAT
    }
  }
  attr {
    key: "_class"
    value {
      list {
        s: "loc:@SimpleDesc/bn1/moving_mean"
      }
    }
  }
  attr {
    key: "use_locking"
    value {
      b: true
    }
  }
  attr {
    key: "validate_shape"
    value {
      b: true
    }
  }
}
node {
  name: "save/Assign_57"
  op: "Assign"
  input: "SimpleDesc/bn1/moving_variance"
  input: "save/RestoreV2:57"
  attr {
    key: "T"
    value {
      type: DT_FLOAT
    }
  }
  attr {
    key: "_class"
    value {
      list {
        s: "loc:@SimpleDesc/bn1/moving_variance"
      }
    }
  }
  attr {
    key: "use_locking"
    value {
      b: true
    }
  }
  attr {
    key: "validate_shape"
    value {
      b: true
    }
  }
}
node {
  name: "save/Assign_58"
  op: "Assign"
  input: "SimpleDesc/bn2/beta"
  input: "save/RestoreV2:58"
  attr {
    key: "T"
    value {
      type: DT_FLOAT
    }
  }
  attr {
    key: "_class"
    value {
      list {
        s: "loc:@SimpleDesc/bn2/beta"
      }
    }
  }
  attr {
    key: "use_locking"
    value {
      b: true
    }
  }
  attr {
    key: "validate_shape"
    value {
      b: true
    }
  }
}
node {
  name: "save/Assign_59"
  op: "Assign"
  input: "SimpleDesc/bn2/gamma"
  input: "save/RestoreV2:59"
  attr {
    key: "T"
    value {
      type: DT_FLOAT
    }
  }
  attr {
    key: "_class"
    value {
      list {
        s: "loc:@SimpleDesc/bn2/gamma"
      }
    }
  }
  attr {
    key: "use_locking"
    value {
      b: true
    }
  }
  attr {
    key: "validate_shape"
    value {
      b: true
    }
  }
}
node {
  name: "save/Assign_60"
  op: "Assign"
  input: "SimpleDesc/bn2/moving_mean"
  input: "save/RestoreV2:60"
  attr {
    key: "T"
    value {
      type: DT_FLOAT
    }
  }
  attr {
    key: "_class"
    value {
      list {
        s: "loc:@SimpleDesc/bn2/moving_mean"
      }
    }
  }
  attr {
    key: "use_locking"
    value {
      b: true
    }
  }
  attr {
    key: "validate_shape"
    value {
      b: true
    }
  }
}
node {
  name: "save/Assign_61"
  op: "Assign"
  input: "SimpleDesc/bn2/moving_variance"
  input: "save/RestoreV2:61"
  attr {
    key: "T"
    value {
      type: DT_FLOAT
    }
  }
  attr {
    key: "_class"
    value {
      list {
        s: "loc:@SimpleDesc/bn2/moving_variance"
      }
    }
  }
  attr {
    key: "use_locking"
    value {
      b: true
    }
  }
  attr {
    key: "validate_shape"
    value {
      b: true
    }
  }
}
node {
  name: "save/Assign_62"
  op: "Assign"
  input: "SimpleDesc/bn3/beta"
  input: "save/RestoreV2:62"
  attr {
    key: "T"
    value {
      type: DT_FLOAT
    }
  }
  attr {
    key: "_class"
    value {
      list {
        s: "loc:@SimpleDesc/bn3/beta"
      }
    }
  }
  attr {
    key: "use_locking"
    value {
      b: true
    }
  }
  attr {
    key: "validate_shape"
    value {
      b: true
    }
  }
}
node {
  name: "save/Assign_63"
  op: "Assign"
  input: "SimpleDesc/bn3/gamma"
  input: "save/RestoreV2:63"
  attr {
    key: "T"
    value {
      type: DT_FLOAT
    }
  }
  attr {
    key: "_class"
    value {
      list {
        s: "loc:@SimpleDesc/bn3/gamma"
      }
    }
  }
  attr {
    key: "use_locking"
    value {
      b: true
    }
  }
  attr {
    key: "validate_shape"
    value {
      b: true
    }
  }
}
node {
  name: "save/Assign_64"
  op: "Assign"
  input: "SimpleDesc/bn3/moving_mean"
  input: "save/RestoreV2:64"
  attr {
    key: "T"
    value {
      type: DT_FLOAT
    }
  }
  attr {
    key: "_class"
    value {
      list {
        s: "loc:@SimpleDesc/bn3/moving_mean"
      }
    }
  }
  attr {
    key: "use_locking"
    value {
      b: true
    }
  }
  attr {
    key: "validate_shape"
    value {
      b: true
    }
  }
}
node {
  name: "save/Assign_65"
  op: "Assign"
  input: "SimpleDesc/bn3/moving_variance"
  input: "save/RestoreV2:65"
  attr {
    key: "T"
    value {
      type: DT_FLOAT
    }
  }
  attr {
    key: "_class"
    value {
      list {
        s: "loc:@SimpleDesc/bn3/moving_variance"
      }
    }
  }
  attr {
    key: "use_locking"
    value {
      b: true
    }
  }
  attr {
    key: "validate_shape"
    value {
      b: true
    }
  }
}
node {
  name: "save/Assign_66"
  op: "Assign"
  input: "SimpleDesc/conv1/biases"
  input: "save/RestoreV2:66"
  attr {
    key: "T"
    value {
      type: DT_FLOAT
    }
  }
  attr {
    key: "_class"
    value {
      list {
        s: "loc:@SimpleDesc/conv1/biases"
      }
    }
  }
  attr {
    key: "use_locking"
    value {
      b: true
    }
  }
  attr {
    key: "validate_shape"
    value {
      b: true
    }
  }
}
node {
  name: "save/Assign_67"
  op: "Assign"
  input: "SimpleDesc/conv1/weights"
  input: "save/RestoreV2:67"
  attr {
    key: "T"
    value {
      type: DT_FLOAT
    }
  }
  attr {
    key: "_class"
    value {
      list {
        s: "loc:@SimpleDesc/conv1/weights"
      }
    }
  }
  attr {
    key: "use_locking"
    value {
      b: true
    }
  }
  attr {
    key: "validate_shape"
    value {
      b: true
    }
  }
}
node {
  name: "save/Assign_68"
  op: "Assign"
  input: "SimpleDesc/conv2/biases"
  input: "save/RestoreV2:68"
  attr {
    key: "T"
    value {
      type: DT_FLOAT
    }
  }
  attr {
    key: "_class"
    value {
      list {
        s: "loc:@SimpleDesc/conv2/biases"
      }
    }
  }
  attr {
    key: "use_locking"
    value {
      b: true
    }
  }
  attr {
    key: "validate_shape"
    value {
      b: true
    }
  }
}
node {
  name: "save/Assign_69"
  op: "Assign"
  input: "SimpleDesc/conv2/weights"
  input: "save/RestoreV2:69"
  attr {
    key: "T"
    value {
      type: DT_FLOAT
    }
  }
  attr {
    key: "_class"
    value {
      list {
        s: "loc:@SimpleDesc/conv2/weights"
      }
    }
  }
  attr {
    key: "use_locking"
    value {
      b: true
    }
  }
  attr {
    key: "validate_shape"
    value {
      b: true
    }
  }
}
node {
  name: "save/Assign_70"
  op: "Assign"
  input: "SimpleDesc/conv3/biases"
  input: "save/RestoreV2:70"
  attr {
    key: "T"
    value {
      type: DT_FLOAT
    }
  }
  attr {
    key: "_class"
    value {
      list {
        s: "loc:@SimpleDesc/conv3/biases"
      }
    }
  }
  attr {
    key: "use_locking"
    value {
      b: true
    }
  }
  attr {
    key: "validate_shape"
    value {
      b: true
    }
  }
}
node {
  name: "save/Assign_71"
  op: "Assign"
  input: "SimpleDesc/conv3/weights"
  input: "save/RestoreV2:71"
  attr {
    key: "T"
    value {
      type: DT_FLOAT
    }
  }
  attr {
    key: "_class"
    value {
      list {
        s: "loc:@SimpleDesc/conv3/weights"
      }
    }
  }
  attr {
    key: "use_locking"
    value {
      b: true
    }
  }
  attr {
    key: "validate_shape"
    value {
      b: true
    }
  }
}
node {
  name: "save/Assign_72"
  op: "Assign"
  input: "SimpleDesc/fc-bn1/beta"
  input: "save/RestoreV2:72"
  attr {
    key: "T"
    value {
      type: DT_FLOAT
    }
  }
  attr {
    key: "_class"
    value {
      list {
        s: "loc:@SimpleDesc/fc-bn1/beta"
      }
    }
  }
  attr {
    key: "use_locking"
    value {
      b: true
    }
  }
  attr {
    key: "validate_shape"
    value {
      b: true
    }
  }
}
node {
  name: "save/Assign_73"
  op: "Assign"
  input: "SimpleDesc/fc-bn1/gamma"
  input: "save/RestoreV2:73"
  attr {
    key: "T"
    value {
      type: DT_FLOAT
    }
  }
  attr {
    key: "_class"
    value {
      list {
        s: "loc:@SimpleDesc/fc-bn1/gamma"
      }
    }
  }
  attr {
    key: "use_locking"
    value {
      b: true
    }
  }
  attr {
    key: "validate_shape"
    value {
      b: true
    }
  }
}
node {
  name: "save/Assign_74"
  op: "Assign"
  input: "SimpleDesc/fc-bn1/moving_mean"
  input: "save/RestoreV2:74"
  attr {
    key: "T"
    value {
      type: DT_FLOAT
    }
  }
  attr {
    key: "_class"
    value {
      list {
        s: "loc:@SimpleDesc/fc-bn1/moving_mean"
      }
    }
  }
  attr {
    key: "use_locking"
    value {
      b: true
    }
  }
  attr {
    key: "validate_shape"
    value {
      b: true
    }
  }
}
node {
  name: "save/Assign_75"
  op: "Assign"
  input: "SimpleDesc/fc-bn1/moving_variance"
  input: "save/RestoreV2:75"
  attr {
    key: "T"
    value {
      type: DT_FLOAT
    }
  }
  attr {
    key: "_class"
    value {
      list {
        s: "loc:@SimpleDesc/fc-bn1/moving_variance"
      }
    }
  }
  attr {
    key: "use_locking"
    value {
      b: true
    }
  }
  attr {
    key: "validate_shape"
    value {
      b: true
    }
  }
}
node {
  name: "save/Assign_76"
  op: "Assign"
  input: "SimpleDesc/fc1/biases"
  input: "save/RestoreV2:76"
  attr {
    key: "T"
    value {
      type: DT_FLOAT
    }
  }
  attr {
    key: "_class"
    value {
      list {
        s: "loc:@SimpleDesc/fc1/biases"
      }
    }
  }
  attr {
    key: "use_locking"
    value {
      b: true
    }
  }
  attr {
    key: "validate_shape"
    value {
      b: true
    }
  }
}
node {
  name: "save/Assign_77"
  op: "Assign"
  input: "SimpleDesc/fc1/weights"
  input: "save/RestoreV2:77"
  attr {
    key: "T"
    value {
      type: DT_FLOAT
    }
  }
  attr {
    key: "_class"
    value {
      list {
        s: "loc:@SimpleDesc/fc1/weights"
      }
    }
  }
  attr {
    key: "use_locking"
    value {
      b: true
    }
  }
  attr {
    key: "validate_shape"
    value {
      b: true
    }
  }
}
node {
  name: "save/Assign_78"
  op: "Assign"
  input: "SimpleDesc/fc2/biases"
  input: "save/RestoreV2:78"
  attr {
    key: "T"
    value {
      type: DT_FLOAT
    }
  }
  attr {
    key: "_class"
    value {
      list {
        s: "loc:@SimpleDesc/fc2/biases"
      }
    }
  }
  attr {
    key: "use_locking"
    value {
      b: true
    }
  }
  attr {
    key: "validate_shape"
    value {
      b: true
    }
  }
}
node {
  name: "save/Assign_79"
  op: "Assign"
  input: "SimpleDesc/fc2/weights"
  input: "save/RestoreV2:79"
  attr {
    key: "T"
    value {
      type: DT_FLOAT
    }
  }
  attr {
    key: "_class"
    value {
      list {
        s: "loc:@SimpleDesc/fc2/weights"
      }
    }
  }
  attr {
    key: "use_locking"
    value {
      b: true
    }
  }
  attr {
    key: "validate_shape"
    value {
      b: true
    }
  }
}
node {
  name: "save/restore_all"
  op: "NoOp"
  input: "^save/Assign"
  input: "^save/Assign_1"
  input: "^save/Assign_10"
  input: "^save/Assign_11"
  input: "^save/Assign_12"
  input: "^save/Assign_13"
  input: "^save/Assign_14"
  input: "^save/Assign_15"
  input: "^save/Assign_16"
  input: "^save/Assign_17"
  input: "^save/Assign_18"
  input: "^save/Assign_19"
  input: "^save/Assign_2"
  input: "^save/Assign_20"
  input: "^save/Assign_21"
  input: "^save/Assign_22"
  input: "^save/Assign_23"
  input: "^save/Assign_24"
  input: "^save/Assign_25"
  input: "^save/Assign_26"
  input: "^save/Assign_27"
  input: "^save/Assign_28"
  input: "^save/Assign_29"
  input: "^save/Assign_3"
  input: "^save/Assign_30"
  input: "^save/Assign_31"
  input: "^save/Assign_32"
  input: "^save/Assign_33"
  input: "^save/Assign_34"
  input: "^save/Assign_35"
  input: "^save/Assign_36"
  input: "^save/Assign_37"
  input: "^save/Assign_38"
  input: "^save/Assign_39"
  input: "^save/Assign_4"
  input: "^save/Assign_40"
  input: "^save/Assign_41"
  input: "^save/Assign_42"
  input: "^save/Assign_43"
  input: "^save/Assign_44"
  input: "^save/Assign_45"
  input: "^save/Assign_46"
  input: "^save/Assign_47"
  input: "^save/Assign_48"
  input: "^save/Assign_49"
  input: "^save/Assign_5"
  input: "^save/Assign_50"
  input: "^save/Assign_51"
  input: "^save/Assign_52"
  input: "^save/Assign_53"
  input: "^save/Assign_54"
  input: "^save/Assign_55"
  input: "^save/Assign_56"
  input: "^save/Assign_57"
  input: "^save/Assign_58"
  input: "^save/Assign_59"
  input: "^save/Assign_6"
  input: "^save/Assign_60"
  input: "^save/Assign_61"
  input: "^save/Assign_62"
  input: "^save/Assign_63"
  input: "^save/Assign_64"
  input: "^save/Assign_65"
  input: "^save/Assign_66"
  input: "^save/Assign_67"
  input: "^save/Assign_68"
  input: "^save/Assign_69"
  input: "^save/Assign_7"
  input: "^save/Assign_70"
  input: "^save/Assign_71"
  input: "^save/Assign_72"
  input: "^save/Assign_73"
  input: "^save/Assign_74"
  input: "^save/Assign_75"
  input: "^save/Assign_76"
  input: "^save/Assign_77"
  input: "^save/Assign_78"
  input: "^save/Assign_79"
  input: "^save/Assign_8"
  input: "^save/Assign_9"
}
versions {
  producer: 26
}
